results/sceptr/trained-sceptr-caneval-4/Epoch 27/classifier-27.pth (torch, 2307 bytes, 2 tensors)

scoring_linear1.weight f4 [1, 64]
0.057255536 -0.002852054 0.058329657 -0.094516076 -0.15139315 0.16348723 0.19775759 0.17472017
0.072594866 -0.15633646 -0.032291736 -0.16045043 0.14788024 -0.10404841 -0.072179176 0.024984777
0.055199947 0.023467725 -0.06429025 0.16413446 0.12862727 0.037461806 -0.03246523 0.02124124
-0.08400242 -0.17595144 -0.0014207392 0.23574285 0.30153623 0.02317029 0.07384133 -0.04114499
0.09119568 0.09633915 0.10535495 0.110698506 -0.08285478 -0.014392056 0.01262308 -0.13173144
0.01879755 0.16468681 -0.16185315 -0.041261487 0.11273629 -0.15987302 -0.13933119 0.059562925
0.16576004 -0.09885139 0.03271594 0.005134803 -0.07675286 -0.07145761 -0.016235413 0.03874034
0.17658624 0.08517039 0.039357074 0.015277827 -0.05298951 -0.07075988 -0.09400239 -0.18038301
00000000: c884 6a3d 87e9 3abb 14eb 6e3d a591 c1bd
00000010: ce06 1bbe 3269 273e f780 4a3e d8e9 323e
00000020: 9eac 943d aa16 20be 5744 04bd 1e4d 24be
00000030: eb6d 173e 5517 d5bd add2 93bd e0ac cc3c
00000040: 5719 623d 633f c03c 9baa 83bd dd12 283e
00000050: deb6 033e 8d71 193d 43fa 04bd 1c02 ae3c
00000060: 7609 acbd 9d2c 34be 1938 baba 9366 713e
00000070: f562 9a3e 9fcf bd3c 203a 973d a687 28bd
00000080: cdc4 ba3d 764d c53d 56c4 d73d e6b5 e23d
00000090: c4af a9bd a8cc 6bbc 09d1 4e3c 9be4 06be
000000a0: 52fd 993c a9a3 283e d5bc 25be ce01 29bd
000000b0: 49e2 e63d c1b5 23be d6ac 0ebe 41f8 733d
000000c0: 00bd 293e 9972 cabd 2601 063d d941 a83b
000000d0: 9a30 9dbd 5e58 92bd 2100 85bc 31ae 1e3d
000000e0: 06d3 343e d06d ae3d e234 213d da4f 7a3c
000000f0: 870b 59bd 8eea 90bd 5384 c0bd 53b6 38be

classifying_linear1.weight f4 [1, 64]
-0.3869812 -0.027900854 -0.5972142 -0.16767424 0.074438624 -0.30146405 -0.05958597 0.14828303
0.030973472 -0.26159334 -0.8462112 -0.08358702 -0.6020021 -0.18352596 0.33809674 -0.3860368
-0.59162194 0.49661824 0.44577348 0.07140882 0.436004 0.5262546 0.2018596 -0.40704617
-0.061302375 -0.20442393 -0.20441812 -0.39218318 0.16226791 0.70208424 -0.6155615 -0.40649116
0.44383222 -0.26343048 0.28599033 0.18667981 -0.32174414 0.5984856 -0.39912882 0.018166406
-0.12590148 -0.35944408 -0.59043354 0.4331553 0.9441355 -0.070073284 0.26265666 0.69580823
-0.018275263 -0.021164268 -0.24057691 -0.7920552 -0.38321745 -0.91501707 0.22998549 0.4066887
0.7706521 -0.23292446 0.61170226 0.7649729 0.36498788 0.52991813 -0.10910269 -0.12455863
00000000: 6622 c6be 5590 e4bc 08e3 18bf ccb2 2bbe
00000010: 4773 983d 7f59 9abe 6b10 74bd 82d7 173e
00000020: 14bc fd3c 90ef 85be 4ca1 58bf ac2f abbd
00000030: cf1c 1abf 3bee 3bbe 041b ad3e 9ea6 c5be
00000040: 8974 17bf bf44 fe3e 6c3c e43e ca3e 923d
00000050: eb3b df3e 9fb8 063f 48b4 4e3e 5b68 d0be
00000060: 3318 7bbd 8254 51be fc52 51be 3ccc c8be
00000070: 8f29 263e cbbb 333f 7095 1dbf 9c1f d0be
00000080: fa3d e33e 5ce0 86be 536d 923e fe28 3f3e
00000090: a6bb a4be 5a36 193f 9d5a ccbe b7d1 943c
000000a0: 51ec 00be 0e09 b8be a726 17bf 88c6 dd3e
000000b0: ddb2 713f 9582 8fbd ef7a 863e 7d20 323f
000000c0: 01b6 95bc b060 adbc cb59 76be 21c4 4abf
000000d0: 1435 c4be 8f3e 6abf 5181 6b3e 8039 d03e
000000e0: 7549 453f c083 6ebe 8598 1c3f 44d5 433f
000000f0: b1df ba3e b7a8 073f 3b71 dfbd 9818 ffbd
