results/sceptr/eval/trained-sceptr-caneval-0/Epoch 2/classifier-2.pth (torch, 2301 bytes, 2 tensors)

scoring_linear1.weight f4 [1, 64]
000000 4d e7 a6 3c 7f d5 d9 3d f2 cc 2d 3d ad ac 43 3d
       0.020373965 0.10636424 0.04243178 0.0477721
000010 53 9c 76 bc 0b 24 30 bd 17 87 70 3c c4 14 c6 bb
       -0.015051919 -0.043003123 0.014680645 -0.006044956
000020 bc 9a 81 bd a2 ca 18 be d8 ea 1d 3c 55 b8 17 3e
       -0.06328341 -0.14921048 0.009638511 0.14816411
000030 c6 28 ea 3d cc 46 e9 3c 6d 87 4a bc 14 0b 01 bd
       0.11433558 0.028476141 -0.01236139 -0.031504706
000040 34 f6 d4 3c 11 c2 07 3e c7 06 3e bd bf a1 f6 bc
       0.025996305 0.13257624 -0.046393182 -0.030106423
000050 6d 51 83 bd b1 4a c7 3d 08 8a 50 bd 88 1b ce bc
       -0.06412015 0.09731043 -0.050912887 -0.025159612
000060 33 87 08 bd 3e 4a 35 3d c0 02 b1 3d 8d fe 19 3d
       -0.03333206 0.044260256 0.08643103 0.037596274
000070 15 8b e4 3d d3 75 84 3d bd 84 4f 3d 76 e4 82 bd
       0.1115934 0.06467786 0.0506637 -0.06391232
000080 19 87 86 bc cb c5 ea bc 83 da 68 3c 83 b1 d5 bd
       -0.016421841 -0.028658768 0.0142122535 -0.10434248
000090 5a d9 00 3d 84 7a 6d 3c 13 d9 60 bd df da bf 3d
       0.031457283 0.014494542 -0.054894518 0.09367918
0000a0 d7 36 05 3e 66 0a 0d bd 43 6e d0 3c 69 ff 66 3c
       0.13009201 -0.034433745 0.025443202 0.01409898
0000b0 b5 65 cc bd 0d 27 b7 bd ca e6 34 bd 52 71 a6 bc
       -0.099803366 -0.08942995 -0.04416541 -0.020317707
0000c0 f0 14 b5 3d 82 a3 a8 3d d7 44 5a 3d 9b 3a 93 bd
       0.08841884 0.08234312 0.053288307 -0.071889125
0000d0 ec c0 9a 3d 25 6e 94 bc 6b 71 3c bd 52 eb e4 bd
       0.07556328 -0.018118927 -0.0460066 -0.11177696
0000e0 9c 72 b2 3d cf e0 cb 39 6a 40 88 bd ea eb 4e bd
       0.08713266 0.00038886673 -0.06652911 -0.050517954
0000f0 9b 1c e0 bd b7 46 b5 bd b0 71 51 3d 09 3e 12 3e
       -0.10942956 -0.088513784 0.05113381 0.14281477

classifying_linear1.weight f4 [1, 64]
000000 eb 03 52 bc 19 71 8d 3d a3 71 e4 ba 71 13 bb 3d
       -0.012818317 0.06906337 -0.0017428886 0.091345675
000010 71 a4 a3 3d 53 04 43 3d a4 f5 a4 3d aa 56 de 3d
       0.07990349 0.047611546 0.08054665 0.108563736
000020 21 a9 91 3c e8 4b 4c bd b7 bc 88 3d f9 2f bc 3d
       0.017780842 -0.049877077 0.066766195 0.091888376
000030 b2 27 5e bc 97 4f eb bd bb 9b 89 3d d0 04 a8 3d
       -0.013559269 -0.1148979 0.06719156 0.08204043
000040 00 d7 d2 bd 59 13 65 3d 93 0b 09 be ad 2e a7 3a
       -0.10294914 0.055926654 -0.13383321 0.0012754999
000050 34 c4 86 bc 3b f9 44 3d d5 9d e7 3d 43 28 e5 bd
       -0.016450979 0.048089247 0.11309401 -0.1118932
000060 84 95 7a 3b 77 8e c6 bd 99 df 8c bd 3f d1 0c 3d
       0.003823609 -0.09695142 -0.06878585 0.03437924
000070 1e 77 9c 3c 6c a6 a6 bd 5a b3 84 3c d5 ae 6a 3c
       0.019099768 -0.08137211 0.016198803 0.01432391
000080 10 3a c2 bd e5 5b df 3d 08 64 66 bd f7 9f 71 bd
       -0.09483731 0.10906199 -0.05624774 -0.058990445
000090 f2 b2 9f bd 4f 8d 46 3d 01 40 c6 bc 0d 9d dd 3c
       -0.07797803 0.048474606 -0.024200441 0.027052427
0000a0 63 39 b5 bd b8 c9 c5 3d 26 bf 70 3d 79 7f 77 bc
       -0.08848836 0.096576154 0.058776043 -0.015106075
0000b0 08 19 f1 bc ed c6 ed bc a5 30 ea 3d 89 50 fb 3d
       -0.029430881 -0.02902552 0.114350595 0.1227122
0000c0 2c 87 c0 bc bf f1 13 3e fb 96 b5 bd c9 ae e3 bb
       -0.023501955 0.14447688 -0.08866688 -0.0069483262
0000d0 bf cb 39 bd ab 84 55 bc 64 c3 90 bd 99 90 13 3d
       -0.045360323 -0.013032119 -0.07068518 0.03602657
0000e0 07 df f0 bd 61 0f 6d 3d 1a b2 a4 3d 74 b5 93 bd
       -0.11761289 0.057875995 0.08041783 -0.07212344
0000f0 6c 3a 50 bd b8 43 67 bd 46 03 ba 3d af 68 0a be
       -0.050836965 -0.056461066 0.090826556 -0.13516496
