results/symbolic/aaprop/trained-aaprop-2/Epoch 47/classifier-47.pth (torch, 1795 bytes, 2 tensors)

scoring_linear1.weight f4 [1, 14]
00000000: 6134 96be 87ec 3c3e ca6a 733e 5a5e da3a
00000010: 5e16 d83c 81d8 a23d 5cfe 28be b807 5b3d
00000020: 0b71 353e a9df 483e 5f51 abbd 68e4 b53c
00000030: 26da c0bc a074 63be
-0.29336837 0.18449603 0.23771206 0.0016660199 0.026377853 0.07951451 -0.1650328 0.053474158
0.17718904 0.1961657 -0.0836513 0.02220364 -0.023541521 -0.22212458

classifying_linear1.weight f4 [1, 14]
00000000: 284a b8bd 015c 45be 4fc5 d4bd 3a95 043e
00000010: 9b59 0b3d beaa fbbd 94c9 debd 4683 5c3e
00000020: 6592 c8bd 2652 563d 49f0 833e ffa6 e2bd
00000030: 6995 863e 85d8 d43d
-0.08998519 -0.19273378 -0.10389196 0.1294755 0.034021 -0.12288426 -0.10878292 0.21534452
-0.097935475 0.052324437 0.2576926 -0.11067008 0.26285866 0.1039286
