results/symbolic/aaprop/trained-aaprop-130-3/Epoch 32/classifier-32.pth (torch, 2823 bytes, 4 tensors)

upscale.weight f4 [8, 14]
000000 c4 ee 1f 3e ea 5f 00 be 95 0c 37 bd 9a b3 97 3e
       0.15618426 -0.12536588 -0.044689734 0.29629213
000010 9a b8 90 3e 4a bd 76 be e9 45 bd be 1c 97 d6 3d
       0.2826584 -0.24095646 -0.369674 0.104780406
000020 40 ba 7c 3d b7 92 34 be 3f d5 b1 bc 47 7c ca 3d
       0.06170106 -0.17634092 -0.021708129 0.09886985
000030 3f 55 40 3d bf 6c 33 3e 14 38 ed bd d7 3d 85 be
       0.046956297 0.17521952 -0.11582962 -0.26023743
000040 67 e9 22 3e bf 38 90 bd a4 84 29 bd d0 ff 48 3e
       0.15909348 -0.070420735 -0.04138626 0.19628835
000050 d8 92 ce 3e 6d dd 97 be 09 54 a9 be e2 4c 72 3d
       0.40346408 -0.29661122 -0.33071926 0.059155352
000060 e8 f8 3d 3e de 79 a5 3a 5b 3e 0e 3e 7e 55 6a 3e
       0.18551981 0.001262482 0.13890974 0.22884175
000070 d8 d2 0e be 67 01 1e be 82 7d 54 be 61 ca 14 be
       -0.13947618 -0.15430222 -0.20751002 -0.14530326
000080 14 cd 9f be ec dd 01 3e c1 a0 ae 3e 0f ff d7 bd
       -0.3121115 0.12682313 0.3410702 -0.105466954
000090 5c 6f fa ba 01 9c 4c 3e 50 a4 17 3e 2c 4e 34 bd
       -0.0019106674 0.19981386 0.14808774 -0.044019863
0000a0 62 58 6b 3e 48 62 2f be 67 53 95 bb e0 db a4 3c
       0.22982934 -0.17127335 -0.0045570615 0.020124376
0000b0 f5 c4 f3 bb de 38 66 be 12 0c 8c bd 08 fe 96 3d
       -0.0074392506 -0.2248263 -0.0683824 0.07372671
0000c0 dc d5 ed 3e e3 08 a6 bd 7d c5 a1 be c9 8a 8f bc
       0.46452224 -0.08107164 -0.31595984 -0.017522233
0000d0 bf bc 67 bd 6f e2 c5 3c 54 08 e7 3e 41 a8 ee bd
       -0.056576487 0.024155824 0.4512354 -0.11653186
0000e0 64 df 09 3c 3e fb 84 3c e5 14 e7 3c 4f b9 bd 3e
       0.008415077 0.016233083 0.028208205 0.37055442
0000f0 af 84 48 3d b7 b9 94 3e 9d 08 88 3d 49 18 0f 3d
       0.048954662 0.2904794 0.06642268 0.03493527
000100 d2 39 b6 3c 51 4a 35 3d 3f 18 31 be 16 13 95 bd
       0.022244368 0.044260327 -0.17294405 -0.07279031
000110 89 78 cd 3d 9f 04 61 bc 92 19 2d be 0e d5 ed 3d
       0.10032756 -0.013734012 -0.16904286 0.116129026
000120 02 20 cd 3c 87 20 36 be a5 7b 85 3e 8c cc 64 3d
       0.025039677 -0.17785846 0.26070896 0.055859134
000130 97 d1 14 3e 43 d7 94 3e 31 bc bd 3d ec 66 d2 bd
       0.14533077 0.29070482 0.0926441 -0.10273537
000140 c9 06 34 be ad ea af 3e a0 69 df bd b4 1f 17 be
       -0.17580713 0.3435873 -0.10908818 -0.14758188
000150 47 50 9c 3d 88 bb b1 3d 7b 1c f1 3d 10 f2 44 3e
       0.07632499 0.08678347 0.1177301 0.19232965
000160 75 99 8f 3e 80 ad 6b 3e 0c dd 11 be 69 1f 6a bd
       0.28046766 0.23015404 -0.14244479 -0.05715886
000170 a3 3a 3b 3e 57 b4 cc bd 16 33 63 be e4 43 31 3e
       0.18284087 -0.099953346 -0.22187456 0.17311054
000180 70 c5 47 be 36 44 0b bd 30 be 21 3d 38 84 ac bd
       -0.1950891 -0.034000598 0.039488018 -0.08423656
000190 7d 29 34 bd 61 9d fb 3d 10 59 6e be 9a f2 5b 3e
       -0.04398488 0.12285877 -0.23276162 0.21479264
0001a0 fd a4 fc 3e 68 1b 6d bc 92 fa 40 be 9f b0 f7 bc
       0.49344626 -0.014471866 -0.18845585 -0.030235587
0001b0 e9 da 39 be 8e 94 48 be 33 3c 6f 3e e7 09 41 bd
       -0.18149914 -0.19587919 0.23362808 -0.047128584

upscale.bias f4 [8]
000000 03 bd 37 bd a9 8e 84 be 1a ed b1 3d 17 cc 4d 3e
       -0.04485799 -0.2589009 0.08687802 0.20097385
000010 f2 de 18 be df 2f 25 be eb e5 66 be 98 f2 58 3e
       -0.14928797 -0.16131543 -0.22548644 0.21186292

scoring_linear1.weight f4 [1, 8]
000000 68 52 63 be 4a 5b 8e 3d 7c db b8 3d bc 4e 3a be
       -0.22199404 0.06951006 0.09026238 -0.18194097
000010 31 b3 1e be a3 3f cd 3e ad 7b 94 3d 96 a0 3a be
       -0.15498044 0.40087613 0.07250152 -0.18225321

classifying_linear1.weight f4 [1, 8]
000000 05 f9 cf be d9 b3 da 3e 40 e5 af 3e e4 f5 1b 3f
       -0.40619674 0.42715338 0.3435459 0.60922074
000010 e4 d6 8e bc d5 a8 0b be 0c e5 d2 be b6 dd 29 3f
       -0.017436452 -0.13638623 -0.41190374 0.6635393
