good-results/symbolic/trained-aaprop-130/Epoch 30/classifier-30.pth (torch, 2823 bytes, 4 tensors)

upscale.weight f4 [8, 14]
0.037950967 0.16910894 0.20169218 0.24281198 0.1525529 -0.21667787 -0.1002072 0.013316821
-0.14624205 0.1184516 0.016822843 -0.17189729 0.13728876 -0.23136362 0.2497081 -0.20197254
0.0007839851 -0.010016211 -0.0418261 0.3671862 0.11683149 0.090081364 -0.06641057 -0.21022479
0.072896875 0.09322338 0.09798787 -0.10609313 0.3890933 0.1907141 -0.15632051 -0.07820781
-0.250085 0.1938457 -0.08598965 0.080584124 0.027806614 -0.2038404 0.35381186 0.23761691
-0.09947458 -0.026759006 -0.062802464 0.11960795 0.09096997 -0.05482668 -0.1576933 -0.20796353
-0.23054911 0.12063489 0.13471161 -0.0666037 -0.24475676 0.079987265 -0.2688279 -0.00064902444
-0.08262755 -0.036570005 0.13959137 0.071634 -0.25918725 0.15992206 -0.067682974 0.20837899
0.11424468 -0.053889126 0.31581035 0.06847037 -0.044056956 -0.0002971642 0.37956607 -0.21098444
0.008214795 0.007289165 -0.07515407 0.2837652 0.15144147 0.075764224 0.2995932 -0.0005211335
0.05375501 0.00672256 0.2858027 -0.16101155 -0.15693708 -0.09422081 -0.176956 -0.033257015
-0.07951417 0.1001471 -0.25767598 -0.06556058 0.13804768 0.19576433 0.011393666 -0.08249041
-0.15925139 0.35439444 -0.1250885 0.18143767 -0.0017449283 0.009210126 0.057153832 -0.27403986
-0.042614024 -0.29816893 0.04036389 0.17427418 -0.017442297 -0.12994587 -0.111990996 0.21131535
00000000: 7972 1b3d e52a 2d3e 6588 4e3e b4a3 783e
00000010: d436 1c3e cee0 5dbe 6f39 cdbd cc2e 5a3c
00000020: 7ac0 15be c196 f23d 0fd0 893c d805 30be
00000030: 6d95 0c3e 96ea 6cbe 7bb3 7f3e e4d1 4ebe
00000040: 5984 4d3a 091b 24bc d851 2bbd d4ff bb3e
00000050: 5945 ef3d 947c b83d 4402 88bd 2b45 57be
00000060: f54a 953d e6eb be3d ddad c83d 5b47 d9bd
00000070: 3d37 c73e 8f4a 433e 7c12 20be 6b2b a0bd
00000080: 240b 80be 7d7f 463e 571b b0bd 4a09 a53d
00000090: b2ca e33c 8abb 50be d426 b53e d951 733e
000000a0: 54b9 cbbd b435 dbbc 949e 80bd 03f5 f43d
000000b0: 774e ba3d f191 60bd 5a7a 21be 64f4 54be
000000c0: 1115 6cbe 6d0f f73d d7f1 093e 8567 88bd
000000d0: 84a1 7abe 5dd0 a33d cfa3 89be 4b23 2aba
000000e0: a238 a9bd 6eca 15bd 0af1 0e3e d9b4 923d
000000f0: 31b4 84be 9cc2 233e 5f9d 8abd 4d61 553e
00000100: 1df9 e93d d8ba 5cbd e5b1 a13e 313a 8c3d
00000110: 1175 34bd b4cc 9bb9 7c56 c23e 4e0c 58be
00000120: 5997 063c f3d9 ee3b 61ea 99bd ac49 913e
00000130: 7913 1b3e 462a 9b3d 4864 993e ad9c 08ba
00000140: 372e 5c3d ec48 dc3b bb54 923e 36e0 24be
00000150: 1db4 20be d7f6 c0bd f433 35be 8238 08bd
00000160: 53d8 a2bd ec19 cd3d 1bee 83be a044 86bd
00000170: 5f5c 0d3e 7276 483e 80ac 3a3c bbf0 a8bd
00000180: cc12 23be 3073 b53e 3317 00be ccca 393e
00000190: 14b6 e4ba 11e6 163c 231a 6a3d f44e 8cbe
000001a0: 0b8c 2ebd 99a9 98be 9b54 253d ee74 323e
000001b0: 26e3 8ebc 8810 05be 895b e5bd 0d63 583e

upscale.bias f4 [8]
0.021179093 -0.20666675 -0.19756405 0.25630206 0.031999882 0.09449905 -0.006966664 0.02497275
00000000: c77f ad3c 73a0 53be 3b4e 4abe 063a 833e
00000010: 4f12 033d b888 c13d 9d48 e4bb a793 cc3c

scoring_linear1.weight f4 [1, 8]
0.075897604 -0.26157975 0.00026885737 -0.17730919 0.009974263 -0.15789329 0.09295739 -0.16637136
00000000: 3470 9b3d c8ed 85be 6df5 8c39 8a90 35be
00000010: 176b 233c c7ae 21be 7260 be3d 415d 2abe

classifying_linear1.weight f4 [1, 8]
0.15654647 0.21547696 0.14467593 -0.082898095 0.11316171 0.39417508 -0.55703574 -0.44392675
00000000: b84d 203e fea5 5c3e ed25 143e 7ac6 a9bd
00000010: 54c1 e73d 51d1 c93e e599 0ebf 5e4a e3be
