results/symbolic/aaprop/trained-aaprop-0/Epoch 15/classifier-15.pth (torch, 1795 bytes, 2 tensors)

scoring_linear1.weight f4 [1, 14]
-0.07452036 0.24906886 0.0006634913 0.11063227 -0.03587392 0.07388809 -0.0018233064 0.24928741
0.18079717 -0.070036575 0.1354552 -0.13913849 -0.2485982 -0.36647975
00000000: 219e 98bd e80b 7f3e 26ee 2d3a 2c93 e23d
00000010: 88f0 12bd a452 973d 03fc eeba 3345 7f3e
00000020: e522 393e 566f 8fbd c5b4 0a3e 527a 0ebe
00000030: 8790 7ebe 3ca3 bbbe

classifying_linear1.weight f4 [1, 14]
0.21022573 0.20013021 0.14662424 -0.22040367 -0.2927056 -0.22483549 0.25723186 -0.1107982
0.08681521 0.058115456 -0.15793876 -0.017577002 0.08023392 -0.21261865
00000000: 6a45 573e efee 4c3e aa24 163e 80b1 61be
00000010: 82dd 95be 463b 66be e5b3 833e 2bea e2bd
00000020: 2ccc b13d 790a 6e3d b3ba 21be a5fd 8fbc
00000030: ae51 a43d b4b8 59be
