results/tcr-bert/normal/trained-unidirectional-run2/Epoch 6/classifier-6.pth (torch, 8440 bytes, 2 tensors)

scoring_linear1.weight f4 [1, 768]
00000000: 861d dc3c 49a5 9fbc 7dd4 34bc 0c95 70bb
00000010: f42d 4d3c 4e9d 853b b9dd a8bc cd83 393c
00000020: fae2 2fbc aa66 cdbc b067 bd39 452c 47bd
00000030: 2e07 273d edd2 3fbd 1e10 bb3c c1db 6f3c
00000040: df57 54bc 307a a93c 35e8 4139 87c2 9a3c
00000050: 47a7 6d3d 8644 cdbc 87ea 36bd 3576 f93c
00000060: 8c96 5d3c 6f23 56bb baf5 8cba cb8f 893a
00000070: 526a f5bc 2886 febc f940 08bc f8e6 0f3d
00000080: 8492 12bd 0395 81bd 51d9 f7bb e807 b5bc
00000090: 3923 00bc c0de 043d 45e9 d4bc b3c5 ca3c
000000a0: c657 563c 4d87 e53c 1823 023d 6354 12bd
000000b0: e2c2 7fbb fc2a 143c d244 acbc 2ea0 c9bc
000000c0: 524a 07bc 9a0d 513c 93f1 48bc b2f7 a43c
000000d0: cb00 febc 0b43 c1bc d51f 4abd 8eed 713c
000000e0: e757 3c3d 82dd 343d c837 29bd 4ad8 933c
000000f0: 86a4 03bc d3f1 29bc 15f7 3d3c 7e7d 233d
00000100: 85b9 ff3b 2654 40bd 4c2d 4bbd 5df5 283c
00000110: d8d3 bbba 9182 d63c 614c 12bd 5137 2d3c
00000120: fd65 063d d840 8e3c ae7f bd3c ed20 083d
00000130: 5460 9bbc a9e1 1d3d 9300 d03c 56a3 303d
00000140: 9962 6f3d 0452 95bc cf0a 233d 56fe abbc
00000150: 4d9b 833c 4470 f2bc 3d21 8d3c bb9c 033d
00000160: 9ce0 a839 d9c4 943d 50da 253d 18ed 6dbd
00000170: b1e1 1fbd cd68 4a3c d8d1 e6bc a608 053d
00000180: 39ac 20bd 8467 46bd 3c99 2bba fbb9 bfbc
00000190: 4da4 42bc f27c 15bb fabe a03c dadc 443c
000001a0: ee83 c93c 7b1f 1b3d 1bfd 1ebd 45ef 94bc
000001b0: 8cbe c63c 1da5 8c3b 3214 cd3c ad09 f6bb
000001c0: cb22 be3c 172a 4dbd 33fb 363d f3ad bb3c
000001d0: f7ed b93c e219 21bd b3e5 5abd 9bb2 58bc
000001e0: bca3 1abd 15dc abbc f6d9 d4bb 6a71 91bc
000001f0: 48ca 843c 2322 5bbd 96e6 15bb 7c61 19bd
00000200: 8911 17bd e8c6 4a3d 3f87 b9bc 2485 443c
00000210: 235f d0bc 5558 2dbd 5548 4a3b 1cb4 163d
00000220: c95a 753d ad70 a7bc 360e 103d 65d2 063d
00000230: 0f33 08bd 35fa 853c fd07 e83c ca84 f53c
00000240: 58b4 24bd f21c 8b3b 3bf2 15bd 7c17 5dbb
00000250: 509f d3bc 8778 96bc a795 443c 0487 bbbc
00000260: ab60 0dbd e3b4 4dbd 1fd4 0dbd a567 f63c
00000270: fcc8 2d3d 3fd2 a2bc 0c0d 1c3d 5a2e 0bbd
00000280: cc71 3fbc 7e6c 68ba b0e0 f5ba 3108 20bc
00000290: 2341 f73c 3fb5 c3bc a3da 3d3c 59a2 e03c
000002a0: d014 77bb 3a3d 2c3c 0c9a 62bb f09e ea3b
000002b0: a431 d63c 79a1 803d 150f 2bbc bc51 26bc
000002c0: 50d6 8bbd f38f 063d 6173 3b3c 9ee2 3b3c
000002d0: 5652 2d3d fcf0 833d 610e 8c3c 529e 863c
000002e0: 51ca 223c 0f76 7ebc cfa2 b53b dd09 543d
000002f0: 5f54 333d 55f2 653d e32b 933c f025 4a3c
00000300: 1eef 3dbc d120 fa3b c10f abbc 03a8 dabc
00000310: 6683 913d 2f0d 983b ee89 6dbb 6528 4bbb
00000320: f720 ed3c 25f7 a2bc 4fc6 b93c fdbc f83c
00000330: dab3 36bc dc96 0dbd b09a 623c 7ab4 5abd
00000340: e894 053c da2b cd3c 93b7 c93c 511c 963c
00000350: 657c bc36 ed71 d53c 0b14 893b f8d7 c43c
00000360: dd37 0cbb ba27 b23c b18d 33bd 5c7b 89bd
00000370: 6d0f d33c 0299 713c cc66 6b3c 5be7 073d
00000380: 6f3f fb3a 49a7 97ba 2ca4 bd3d 28c6 a5bc
00000390: badf 86bb 0e87 83bc 0093 333d 402e 07bd
000003a0: f134 eabc 396d 27bd 5ca3 1d3d 1155 1a3d
000003b0: 3bf7 f8bb 7b34 fc3a a477 453d 2aa6 cc3c
000003c0: 1ed4 e2bc 290e d23b 5db1 313d e3d1 483b
000003d0: f424 c5bc 5d8d 783c f344 33bc af25 31bd
000003e0: 8a5f 5abb f4b1 7b3d 2d5d 613c 804f c6bc
000003f0: 2654 803d aef4 c53c 2c03 023b b65d af3c
0.026869547 -0.019487994 -0.011036989 -0.0036709933 0.012523163 0.00407759 -0.020613538 0.011322928
-0.010735268 -0.025073368 0.00036126142 -0.048626203 0.04077833 -0.046832014 0.022834834 0.014639796
-0.012960403 0.020688146 0.00018492418 0.018891586 0.058020856 -0.025057089 -0.044657256 0.030451873
0.013524663 -0.0032674929 -0.0010754385 0.0010495124 -0.029957924 -0.03106983 -0.008316272 0.03513238
-0.03578426 -0.0632725 -0.007563748 -0.022098497 -0.007820898 0.032438993 -0.025990138 0.024752473
0.01308245 0.028018618 0.03177175 -0.03572501 -0.0039026071 0.009043451 -0.02102891 -0.024612512
-0.008257465 0.0127595905 -0.012264627 0.020137642 -0.031006237 -0.023591539 -0.049346764 0.01476611
0.045982268 0.04415656 -0.041312963 0.01804747 -0.008034831 -0.010372597 0.0115945535 0.0399146
0.007804098 -0.04695525 -0.049603745 0.010312405 -0.0014330102 0.026185306 -0.03571737 0.0105722705
0.032812107 0.017364904 0.023132171 0.033234525 -0.018966831 0.038545284 0.025390899 0.04312452
0.05844364 -0.018227585 0.03980523 -0.0209953 0.016065264 -0.029594548 0.017227763 0.03213189
0.00032210804 0.07264108 0.040491402 -0.05808744 -0.039033595 0.012354088 -0.028176233 0.03247895
-0.039226744 -0.048438564 -0.0006545966 -0.023404112 -0.011879993 -0.002281007 0.019622315 0.012015546
0.024599042 0.03787182 -0.0388156 -0.018180499 0.024260782 0.004292144 0.025034044 -0.0075084777
0.02320995 -0.050088968 0.044673156 0.022910094 0.022696478 -0.039331324 -0.053441714 -0.013226177
-0.037753806 -0.020978967 -0.0064957095 -0.017754275 0.016209736 -0.053499352 -0.0022873036 -0.037446484
-0.036881957 0.049506098 -0.022647498 0.011994634 -0.02543599 -0.042320568 0.0030865867 0.03679286
0.059901033 -0.02043947 0.035169803 0.03291549 -0.03325182 0.01635466 0.028324122 0.029970545
-0.04021105 0.004245394 -0.036607962 -0.0033735922 -0.025832802 -0.018368019 0.0119985705 -0.022891529
-0.034516018 -0.050221335 -0.034626123 0.030078718 0.042428 -0.019875644 0.03809838 -0.03397975
-0.011684846 -0.0008866264 -0.0018758979 -0.009767578 0.030182427 -0.023890136 0.011587772 0.027421163
-0.0037701614 0.010512644 -0.0034576682 0.00716006 0.026146717 0.062807985 -0.010440608 -0.010151323
-0.06827986 0.032852124 0.011441083 0.011467604 0.04231485 0.064424485 0.0170967 0.016432915
0.009935931 -0.015531077 0.00554309 0.05176722 0.043781634 0.05613931 0.017965263 0.012338147
-0.0115926545 0.0076333066 -0.020881535 -0.026691442 0.071051404 0.0046402435 -0.0036245543 -0.0030999419
0.028946383 -0.019893238 0.022677569 0.030363554 -0.011151278 -0.0345677 0.013830826 -0.053394772
0.008153178 0.025045324 0.024623668 0.01832405 5.617318e-06 0.0260553 0.0041832975 0.024028763
-0.0021395602 0.021747459 -0.0438363 -0.06712982 0.025764192 0.014745953 0.01436777 0.033179622
0.0019168685 -0.0011570241 0.09259829 -0.02023609 -0.0041160258 -0.01605561 0.043841362 -0.03300309
-0.028589698 -0.040875647 0.03848587 0.037678782 -0.0075978315 0.0019241715 0.0482098 0.024981577
-0.027689036 0.0064103794 0.043382037 0.003064268 -0.024065472 0.015170422 -0.010941732 -0.04324883
-0.0033321106 0.061449006 0.013755125 -0.02420783 0.0626605 0.024164524 0.0019838316 0.02140699

classifying_linear1.weight f4 [1, 768]
00000000: b7a9 2ebd 988e 5cbc f25f bbbb d5f0 ac3d
00000010: 19bf 523d 0974 093d 001a 8bbc 8212 7d3d
00000020: a080 b83c a0c4 783c 5875 b43c 67ad 5bbc
00000030: e8b3 21bd 05e9 b03b e1f8 74bd 69d5 aebd
00000040: 980c 34bd 525c e53a 78b6 ec3d c0f7 753b
00000050: f5d0 12bd 0e32 11bc 0791 aa3c ca58 783c
00000060: bb82 acbc d839 063d 7409 58bc 5301 ea3c
00000070: d098 6dbb 5cb6 863d 7242 ad3c cdf8 10bd
00000080: bcc4 3a3d 63a8 ba3d 7632 843c 8c0c 07bd
00000090: 02f8 2f3d bf33 603b a52e 6fbc 957f 06bd
000000a0: 93d7 f9bd f89b f73c 7b44 8ebc 8ad3 eebb
000000b0: 19bc 6b3c bd03 c03b d100 223d bc36 06bc
000000c0: 9a6b 533d 7c41 41bc d61f 333d c034 6e3c
000000d0: 8d11 d43c 3cb4 ca3b 766c 923d 7a67 e239
000000e0: 4dc0 a8bd 2240 98bc 6f37 0e3d f1db 583d
000000f0: ace7 5b3c 3238 8b3a 0d62 943c c6b8 f43c
00000100: d6b8 87bc 1f10 34bc 8aec 9abd 4352 1f3d
00000110: 9f7d 8b3c 65dc 1fbd 2418 ee3c dc08 53bc
00000120: d729 2abd 7dcf dcbc e68d babc 4c62 893d
00000130: 6b51 133d a9c1 2d3d 9e07 d83b 9e1d 0e3d
00000140: b980 c939 98c2 9d3c 3b47 ffbc 2abe 7abd
00000150: cfee f03b 4d9c 9d3d 9aa9 353d 7713 803b
00000160: 7576 61bc d839 cebd 5ccf 773d 2a2f 9a3d
00000170: 5263 a0bc 4fd1 9c3c c005 da3b 8f99 273d
00000180: 5ef4 a13c 1b47 6d3d edd1 b23c 612f 4ebd
00000190: 0798 e53c 9354 dfbd 0e83 133c 95c4 02bc
000001a0: f645 d1bb 849b 843d 0e41 ff3b 6bc6 bd3c
000001b0: 2312 493b 7e39 a0bc ae11 d5bd c37f bf3d
000001c0: db92 36bd 8acb e53c 115a cfbd 3f12 b2bc
000001d0: 5b0b dabb d51b 143d a08d aabc 3620 dd3d
000001e0: 5532 033d 8c1e 3d3c 2a81 503d 3b96 da3c
000001f0: 7791 16bd bced 6bbd 0c5e 6ebd 371f 963d
00000200: 075d 97bc a60e 71bd 0632 0a3d 0fec 4f3d
00000210: 75b8 6b3d 5b0d 2d3c 72a6 583c 03fc be3c
00000220: 8dfb 33bd 9ba5 cbbc 3ed3 55bc ca47 87bd
00000230: dec6 b63c e5c9 1bbc b34d 02bd a197 3abd
00000240: 6f36 b03c fcb8 493c 672a 7fbd 08a8 e1bc
00000250: fad8 333c 2674 c93c ca85 283c 22a9 4dbd
00000260: 1f40 5c3c f7e4 9b3c d0e0 2fbd 4870 2cba
00000270: 948a 81bd 989d 893d c687 cfbc 4d52 10bd
00000280: 4ba7 253d 1a09 a33d 7302 473c 7455 833c
00000290: 8ba1 3b3b d716 e43b b92b 063c 45f4 633d
000002a0: 4b74 503d a793 923d b246 383c c75e f23c
000002b0: 78c2 003c a732 babc 00e3 553c 68fd 803c
000002c0: a2e9 423d 013e d13c 0a11 66bd 7fb2 083c
000002d0: 7584 873d 8fe9 483c 1182 09be 079b 9e3c
000002e0: be65 93bd 9525 0a3d 881d 1fbd d3f4 27bd
000002f0: 0455 723d decf 8b3b 13af af3d 1a6b 38bc
00000300: 56da 1c3d ce68 8ebd 60e1 7a3c 29fd 68bd
00000310: 167c e33c 308d c53c 5af0 f2ba 7e6d 863c
00000320: 81ad b63a 31ec 73bb 8271 133d ad24 ad3c
00000330: bfea d6bc f8d5 8b3c fc41 eebc ed43 12bd
00000340: 42b7 683d f2de 2d3d fdea ff3c 3686 db3c
00000350: 4ee6 e1bd 272e 9a3b 3f5b 80bd 0e62 b43b
00000360: 066c 5bbd bbc1 8e3d 2804 6abd 15b1 523d
00000370: 30f9 913c 6b64 b43c 7cc8 b73c 2abf b43b
00000380: 9a0e cebc 41b4 063c 5d50 1fbd a1f9 ad3c
00000390: 6557 16bd bc64 e13c 2f04 533d 3918 223d
000003a0: a5e4 613d a8ef c6bc 54ac 07bd 8d3c 15bd
000003b0: 003b 6e3b 4cb1 78bd be3c c2bc 1cc0 32bd
000003c0: 2f79 8bbc 5d39 03bd 0a87 c6bc 4eff 7d3c
000003d0: d466 a13c 3114 3bbd bbbf 113d 95f9 73bc
000003e0: 328b 743c 4550 23bd 909d d03b 330b a03d
000003f0: ddc6 b1bd b4b3 fa3c 59d7 ad3b 1acb cbbc
-0.04264232 -0.013461731 -0.0057182247 0.084443726 0.051451776 0.033557925 -0.016980171 0.06178523
0.02252227 0.015183598 0.02202861 -0.013408042 -0.039478213 0.005398872 -0.059807662 -0.085367985
-0.043957323 0.0017498827 0.11558241 0.0037531704 -0.03584381 -0.008862032 0.020821108 0.015157888
-0.02105843 0.032770008 -0.013185848 0.028565085 -0.0036254413 0.06577751 0.021149848 -0.035393525
0.045597777 0.091141485 0.016137343 -0.03297095 0.042961128 0.003421053 -0.014598523 -0.032836515
-0.12199321 0.030225739 -0.017366638 -0.007288401 0.014388108 0.0058598206 0.03955156 -0.008191761
0.05161629 -0.011795398 0.043731533 0.014538944 0.025887275 0.0061860364 0.071495935 0.00043183175
-0.082398035 -0.018585268 0.034720834 0.052944127 0.013421934 0.0010621606 0.01811316 0.029873263
-0.016567629 -0.010990172 -0.075646475 0.03889681 0.017027674 -0.039028544 0.029064246 -0.01288053
-0.041543808 -0.026954407 -0.02277274 0.06708202 0.035966318 0.042421017 0.006592705 0.034696214
0.00038433613 0.019257829 -0.031161895 -0.06121651 0.007352687 0.07695828 0.044351198 0.0039085704
-0.0137611525 -0.100696266 0.060500488 0.07528527 -0.01957861 0.019142775 0.0066535175 0.04091793
0.019769844 0.05792914 0.021828616 -0.050338153 0.028026594 -0.10904803 0.009003414 -0.007981439
-0.006386514 0.06474975 0.0077897375 0.023165902 0.0030680976 -0.019558664 -0.10403763 0.093505405
-0.044573646 0.028051157 -0.10124601 -0.021737216 -0.0066541857 0.036159355 -0.020819485 0.107971594
0.032030422 0.0115429275 0.05090443 0.026682964 -0.03675982 -0.057599768 -0.05819516 0.073301725
-0.018476976 -0.05885186 0.033739112 0.050762232 0.05754896 0.010562266 0.013223277 0.023313528
-0.04394107 -0.02485924 -0.013050852 -0.066054896 0.022311624 -0.009508585 -0.03181238 -0.04555476
0.021510331 0.01231217 -0.062296297 -0.027545944 0.010977024 0.024591517 0.010285804 -0.050210126
0.013443022 0.019030077 -0.042939007 -0.00065780105 -0.0632526 0.06719512 -0.025333297 -0.03523474
0.040442746 0.0796072 0.01214658 0.016031958 0.0028630223 0.0069607305 0.008189135 0.055652875
0.050892156 0.07157069 0.011247324 0.029586209 0.007858865 -0.022729231 0.013054609 0.015745834
0.04758609 0.025542261 -0.056168593 0.008343338 0.06617061 0.012262716 -0.13428523 0.019361032
-0.0719714 0.033727247 -0.038846523 -0.041004967 0.05916311 0.004266723 0.08578315 -0.011256004
0.03829416 -0.06953584 0.015312523 -0.056882057 0.02776913 0.024115175 -0.0018534765 0.016409632
0.0013937206 -0.0037219638 0.03599692 0.021135652 -0.026234983 0.017069802 -0.029084198 -0.03570931
0.056815393 0.042448945 0.03123998 0.026797395 -0.11030255 0.004705209 -0.06267404 0.005504853
-0.053569816 0.06970545 -0.05713287 0.05143841 0.017819017 0.02202054 0.022434466 0.0055159526
-0.025153447 0.008221687 -0.038895 0.021237196 -0.03670444 0.027513854 0.05151766 0.03957388
0.055149693 -0.024284199 -0.03312333 -0.0364347 0.0036351085 -0.06071596 -0.023710605 -0.04364024
-0.017025558 -0.032037128 -0.024234314 0.015502764 0.019702353 -0.045673553 0.03558324 -0.014891048
0.014925765 -0.039871473 0.006366439 0.07814636 -0.08680508 0.030603267 0.0053052125 -0.02487712
