trained-one-inner-l2/Epoch 9/classifier-9.pth (torch, 4405 bytes, 1 tensors)

linear.weight f4 [1, 768]
0	0xbd388043	-0.045044195
1	0x3cf0071c	0.029300265
2	0x3d9880c4	0.07446435
3	0x3bf8e8c5	0.0075961077
4	0xbcb4d3cb	-0.022073647
5	0x3c1fc1b5	0.009750773
6	0x3b6a0c94	0.0035713064
7	0x3cbd5b06	0.023114692
8	0x3c33c6a4	0.010972653
9	0x3d32a356	0.0436128
10	0xbc9f4cf8	-0.019445881
11	0xbccbce88	-0.024878755
12	0x3ba19bf1	0.0049319197
13	0x3d7c47da	0.06159196
14	0xbc851285	-0.016244182
15	0x3cc9cccd	0.02463379
16	0xbd63348d	-0.05547004
17	0xbd39ab79	-0.045329545
18	0x3d001fd5	0.031280357
19	0xbcf35cae	-0.029707279
20	0xbd1f97c5	-0.038963098
21	0x3d85a9f4	0.065265566
22	0x3c8cfcb6	0.017210346
23	0x3d3d75a8	0.046254784
24	0xbd27735a	-0.040881492
25	0x3d163c22	0.03667844
26	0xbb992668	-0.004673768
27	0xbcced5b6	-0.02524839
28	0x3cf32fc9	0.029685872
29	0xbbdf2eab	-0.006810983
30	0xbb48834f	-0.0030595844
31	0xbd1588e0	-0.036507487
32	0xbd484033	-0.04888935
33	0x3c5332a4	0.012890492
34	0x3d599ebe	0.053129904
35	0xbd688837	-0.05677053
36	0xbcc2c76e	-0.023776736
37	0xbcbef188	-0.02330853
38	0x3c5bdd41	0.01341945
39	0xbd855370	-0.06510055
40	0xbd832fbb	-0.06405588
41	0xbd9c0369	-0.07617838
42	0xbd14e2a2	-0.036348946
43	0x3c30285f	0.010751813
44	0xbbcd544f	-0.006266154
45	0xbbef349c	-0.0072999727
46	0x3d0e2f34	0.034712985
47	0xba8c8d86	-0.001072333
48	0x3d829cee	0.06377588
49	0xbd00ab3f	-0.031413313
50	0x3a148870	0.0005666083
51	0x3d3a729d	0.04551946
52	0x3c944fcd	0.018104458
53	0xbc40386a	-0.0117322
54	0xbd030f4c	-0.03199701
55	0x3d7d83c8	0.061893255
56	0x3cf25547	0.029581679
57	0x3d119c1e	0.035549276
58	0x3d1ec17c	0.03875874
59	0x3c8610eb	0.016365489
60	0xbcaadeb0	-0.020858139
61	0xbcb1399c	-0.021633916
62	0xbd7c3118	-0.061570257
63	0x3b2949a2	0.0025831242
64	0xbd37fc7a	-0.044918515
65	0x3be48691	0.0069740494
66	0xbcd7762d	-0.026301468
67	0xbd359723	-0.04433359
68	0x3d59a7b5	0.053138454
69	0x3b623d45	0.0034521383
70	0x3d811389	0.06302554
71	0xbc8460d5	-0.016159454
72	0xbda53c96	-0.080681965
73	0x3c03a624	0.0080352165
74	0x3c205d2d	0.00978784
75	0x3ccf9dac	0.025343738
76	0xbbadb95b	-0.005301637
77	0x3c752646	0.014962738
78	0x3c8d06bd	0.017215127
79	0xbb51dc20	-0.0032022074
80	0x3b14491b	0.0022626582
81	0xbcd91aaa	-0.026501972
82	0x3d1d4813	0.038398813
83	0x3d347bf3	0.04406352
84	0xbd88ca85	-0.066792525
85	0x3ccea0f4	0.025223233
86	0xbd8022e1	-0.062566526
87	0x3b48ae8c	0.0030621616
88	0x3af79865	0.0018890022
89	0xbd09fd6c	-0.033688948
90	0x3d8ac655	0.0677611
91	0x3d6fbe02	0.058530815
92	0xbdc78eb4	-0.09744015
93	0xbcd5dc1f	-0.026105938
94	0x3d464fb9	0.048415873
95	0x3c7ad4bd	0.01530951
96	0xbcbd0f6e	-0.023078647
97	0xbc1f87a7	-0.009736932
98	0xbd46d41c	-0.048542127
99	0xbc1eff15	-0.009704371
100	0x3d6c9a32	0.05776424
101	0xbd81e87c	-0.06343171
102	0xbcac5af2	-0.02103946
103	0x3d2dc46d	0.042423654
104	0xbd5cf660	-0.0539459
105	0x3d57fe8c	0.05273299
106	0xb892da93	-7.002535e-05
107	0xbcd95ded	-0.026534045
108	0x3d5869b0	0.052835166
109	0x3d0b6ad4	0.034037426
110	0x3d154c30	0.03644961
111	0x3c3c1522	0.011479648
112	0xbcd52c08	-0.026021972
113	0xbd2a5e7a	-0.041594006
114	0xbc506d29	-0.012721338
115	0x3c421a78	0.011847131
116	0xbce356c6	-0.027751338
117	0x3cc6cbf6	0.024267178
118	0xbced1067	-0.028938485
119	0x3d8986f6	0.06715195
120	0x3c43f247	0.011959619
121	0x3c3fb98d	0.011701954
122	0x3ca5a34b	0.020219466
123	0xbce86f59	-0.028373407
124	0x3c2bceba	0.010486299
125	0x3c1c9382	0.009556653
126	0x3d0dc965	0.034615893
127	0x3c155ca4	0.0091163255
128	0xbc44685c	-0.011987772
129	0x3d5c6026	0.05380263
130	0xbc992699	-0.018695163
131	0xbce15013	-0.027504003
132	0xbd5d19c6	-0.053979658
133	0x3c360970	0.0111106485
134	0x3d6fc0fd	0.058533657
135	0xbd219149	-0.039445195
136	0xbc94c54e	-0.018160488
137	0xbd149caa	-0.03628222
138	0x3d17d4a6	0.03706803
139	0xbd006dd1	-0.03135473
140	0xbcbda4e8	-0.023149922
141	0xbce47379	-0.027887093
142	0x3d1842da	0.03717313
143	0x3d6cec80	0.05784273
144	0x3c530edd	0.012881962
145	0xbb6fe14d	-0.0036602796
146	0x3d1b5311	0.037921015
147	0xbc7525e8	-0.014962651
148	0xbc03e8af	-0.008051082
149	0xbcdff6ab	-0.0273393
150	0x3d95b6c6	0.07310252
151	0xbd620a01	-0.05518532
152	0xbc5f0446	-0.013611859
153	0x3c643891	0.013929502
154	0x3c472f5e	0.012157289
155	0xbbac8fa6	-0.0052661477
156	0x3d81dbee	0.063407764
157	0x3d1b496e	0.037911825
158	0xbd5775d8	-0.05260262
159	0xbc5ac92e	-0.013353629
160	0xbc8d4d84	-0.017248876
161	0x3c2d3864	0.010572527
162	0xbce6be21	-0.028166832
163	0xbc7e1b8d	-0.015509498
164	0xbd24627b	-0.04013298
165	0x3c994333	0.0187088
166	0xbb926641	-0.004467756
167	0x3d3f9b2d	0.046778847
168	0xbd296e36	-0.04136487
169	0x3ce13435	0.027490715
170	0x3c382400	0.011239052
171	0xbd4176fe	-0.04723262
172	0xbcd993fd	-0.026559824
173	0xbd1b5d8b	-0.037931006
174	0x3d834c61	0.064110525
175	0x3d57f789	0.052726302
176	0xbc0d7e05	-0.008636002
177	0x3d3c1bbb	0.045924883
178	0x3cf5383f	0.029934047
179	0x3be82b42	0.007085235
180	0x3d8863ca	0.06659658
181	0x3cbaae8d	0.02278831
182	0xbd77c4c0	-0.06049037
183	0xbd29b752	-0.041434593
184	0xbd2fab08	-0.042887717
185	0x3c88dbe0	0.016706407
186	0x3cb9e996	0.02269439
187	0xbe07ab7d	-0.13249011
188	0xbd002f3b	-0.031295042
189	0xbd2bdc2d	-0.041958023
190	0x3bd69919	0.0065490124
191	0xbb4ef2b0	-0.0031577758
192	0xbb18bdf4	-0.002330658
193	0x3b40d987	0.0029426531
194	0x3c0a8244	0.008453909
195	0x3aa8be63	0.0012874122
196	0xbcde5a6d	-0.027142728
197	0xbd20e35b	-0.039279323
198	0xbb7ae947	-0.0038286017
199	0x3d9c48e0	0.07631087
200	0xbcbaf98b	-0.02282407
201	0xbd74da0f	-0.05977827
202	0xbd2fd633	-0.042928886
203	0xbadcab1b	-0.0016835661
204	0xbc8b5eca	-0.017012972
205	0x3d0fee1c	0.03513919
206	0xbd78c501	-0.060734753
207	0xbd28cabc	-0.041208968
208	0x3d61e666	0.055151366
209	0x3d2e17e1	0.04250324
210	0xbcddd862	-0.027080718
211	0xbc5aec54	-0.013362009
212	0x3c84c632	0.016207788
213	0xbd520e0e	-0.051282935
214	0x3c0fffa0	0.008788973
215	0xbd84bfe8	-0.06481916
216	0x3b9203e8	0.004456032
217	0xbc37efd6	-0.011226615
218	0xbcef4119	-0.029205846
219	0x3d6790d2	0.056534596
220	0x3b8a09b2	0.0042125816
221	0x3cb80577	0.022463543
222	0xbb0b512e	-0.0021258104
223	0xbbffd293	-0.007807085
224	0x3bf6a0b9	0.007526484
225	0x3c83ddfa	0.016097058
226	0xbcf48499	-0.029848384
227	0xbc8faac7	-0.017537488
228	0xbb85428e	-0.004066772
229	0x3c8dd95b	0.017315557
230	0x3ba7046a	0.0050969617
231	0x3b06d7b3	0.0020575344
232	0xbcc43565	-0.023951242
233	0x3b83a8f3	0.004017943
234	0xbd954185	-0.072878875
235	0xbd3917dc	-0.04518877
236	0x3d7b0986	0.06128838
237	0xbd431b63	-0.04763354
238	0xbd2ed76b	-0.042685907
239	0x3d04b021	0.032394532
240	0x3c129144	0.008945767
241	0x3d0d4841	0.034492735
242	0x3d59fe25	0.053220887
243	0x3c897fe2	0.016784612
244	0xbcb64482	-0.022249464
245	0x3bceac15	0.006307135
246	0xbc8d4c7b	-0.017248383
247	0xbd891b05	-0.06694607
248	0x3d261dc0	0.040555716
249	0x3d091f56	0.03347715
250	0x3c8586c5	0.016299615
251	0x3c3d2772	0.011545049
252	0xbc9d2edb	-0.019187381
253	0xbd8e0f82	-0.06936552
254	0xbb745381	-0.0037281218
255	0x3d8aa887	0.06770425
