results/symbolic/aaprop/trained-aaprop-2/Epoch 5/classifier-5.pth (torch, 1789 bytes, 2 tensors)

scoring_linear1.weight f4 [1, 14]
-0.046496183 -0.08519707 -0.3869357 -0.23355463 0.07839439 0.13351259 0.27365297 0.14710787
0.107211724 -0.19863519 -0.1722801 -0.23931322 0.11348552 -0.32585487
00000000: c872 3ebd cd7b aebd 701c c6be f228 6fbe
00000010: 3d8d a03d 86b7 083e 3e1c 8c3e 72a3 163e
00000020: d291 db3d 0667 4bbe 326a 30be 860e 75be
00000030: 196b e83d 73d6 a6be

classifying_linear1.weight f4 [1, 14]
0.27800605 -0.13743582 -0.19026846 0.07901632 -0.07573669 0.11285384 0.06844819 0.10096079
0.23238279 0.09810419 -0.0382441 -0.0094826035 -0.11039953 -0.16257511
00000000: cf56 8e3e fabb 0cbe bcd5 42be 4fd3 a13d
00000010: d61b 9bbd ea1f e73d 912e 8c3d 88c4 ce3d
00000020: c1f5 6d3e d9ea c83d d8a5 1cbd ec5c 1bbc
00000030: 2619 e2bd 177a 26be
