results/symbolic/kidera/trained-kidera-1/Epoch 10/classifier-10.pth (torch, 1795 bytes, 2 tensors)

scoring_linear1.weight f4 [1, 10]
000000 05 7a 16 3d c7 37 2d be 76 73 a7 be 8e 40 5c 3e
       0.03673746 -0.16915809 -0.32705277 0.21509
000010 0e f4 0b 3e 57 07 14 bf ff 35 23 be 53 c0 cf bd
       0.13667318 -0.578237 -0.15938567 -0.10144105
000020 13 99 49 3e bc 1b 62 3d
       0.196873 0.05520223

classifying_linear1.weight f4 [1, 10]
000000 75 c0 76 be fb 3d 21 3e c6 34 5e 3e 70 8b 4e be
       -0.24096854 0.157463 0.21699819 -0.20170379
000010 4c db aa bd 90 9b a3 bd 98 61 8a 3e c3 c2 96 be
       -0.08342609 -0.079886556 0.27027583 -0.29445466
000020 4c 57 a0 3d 85 a8 73 3e
       0.078291506 0.23794754
