results/symbolic/atchley/trained-atchley-130-2/Epoch 40/classifier-40.pth (torch, 2887 bytes, 4 tensors)

upscale.weight f4 [16, 5]
0.14030463 0.29468808 -0.48190668 0.19590242 -0.09241798 -0.42298815 0.0730139 0.6104125
-0.39391991 0.40495417 -0.13742073 -0.025584845 -0.036082085 -0.20937818 -0.44604084 -0.15293348
-0.42274463 0.058964975 0.55470604 -0.5831319 -0.05192322 0.18632726 -0.114443436 -0.43344024
0.2241507 -0.3626626 -0.33257848 0.13458091 0.20157988 0.30169916 -0.44902122 0.44355774
0.5846715 -0.3245303 0.25591698 -0.17974196 -0.383662 0.06375238 0.12595285 0.032153457
0.36724272 0.45232633 0.6578601 -0.49561337 -0.12387948 0.4442498 -0.08391078 -0.08583328
-0.22064152 -0.073818676 0.029968092 -0.33479312 -0.082436934 -0.46210402 0.4887171 0.4121712
0.012964332 0.5160607 -0.46512604 0.38768393 0.011003396 -0.06732619 -0.29485032 -0.24797314
0.308114 -0.0013003818 -0.29198056 -0.35121462 0.36166683 -0.27965736 0.41688898 -0.14523645
0.039114416 0.2681195 -0.47407427 -0.2106419 0.107670836 -0.37868902 -0.30610058 -0.23895958
00000000: 04ac 0f3e 5be1 963e 79bc f6be a59a 483e
00000010: a345 bdbd e791 d8be 5088 953d fe43 1c3f
00000020: dfaf c9be 2756 cf3e 05b8 0cbe 4f97 d1bc
00000030: cfca 13bd 3c67 56be 775f e4be 989a 1cbe
00000040: fc71 d8be 4285 713d 3701 0e3f 2248 15bf
00000050: 71ad 54bd 93cc 3e3e 5261 eabd e1eb ddbe
00000060: c387 653e eaae b9be ba47 aabe 94cf 093e
00000070: f56a 4e3e 5078 9a3e 1ce6 e5be 001a e33e
00000080: 08ad 153f d628 a6be 8d07 833e 470e 38be
00000090: 586f c4be 9c90 823d c9f9 003e 58b3 033d
000000a0: 3d07 bc3e 5197 e73e 8569 283f 09c1 fdbe
000000b0: 86b4 fdbd b674 e33e 6ad9 abbd 5cc9 afbd
000000c0: daef 61be 3f2e 97bd a57f f53c 016a abbe
000000d0: b2d4 a8bd e698 ecbe 2139 fa3e 1b08 d33e
000000e0: 5968 543c 8e1c 043f 0025 eebe 827e c63e
000000f0: 9647 343c 50e2 89bd 9ff6 96be acec 7dbe
00000100: 1ec1 9d3e 9371 aaba 7a7e 95be 67d2 b3be
00000110: 652c b93e 402f 8fbe 7972 d53e ddb8 14be
00000120: 7036 203d f646 893e ddb9 f2be 83b2 57be
00000130: 8782 dc3d 87e3 c1be 37b9 9cbe d2b1 74be

upscale.bias f4 [16]
-0.008957169 -0.09892712 -0.048103265 0.21873233 -0.3519286 -0.31162947 0.12744492 -0.2078378
-0.35723075 0.39801115 -0.05008899 -0.3545862 -0.18432233 -0.15788339 -0.014276326 0.38269645
00000000: 17c1 12bc 4d9a cabd ee07 45bd 5efb 5f3e
00000010: fc2f b4be e68d 9fbe ec80 023e 6fd3 54be
00000020: f3e6 b6be 1ec8 cb3e 1d2a 4dbd 538c b5be
00000030: febe 3cbe 2fac 21be 40e7 69bc caf0 c33e

scoring_linear1.weight f4 [1, 16]
0.19339578 -0.1221668 0.13097803 0.06669228 -0.08105103 0.20435555 -0.05786815 -0.009432651
0.066896446 -0.19725637 -0.014660128 0.22090308 0.0416318 0.09844389 0.0005466857 0.14172299
00000000: 8b09 463e 9632 fabd 1b1f 063e f695 883d
00000010: 15fe a5bd 9542 513e 2707 6dbd 688b 1abc
00000020: 0101 893d 93fd 49be 0931 70bc 6b34 623e
00000030: 1b86 2a3d f39c c93d 754f 0f3a d51f 113e

classifying_linear1.weight f4 [1, 16]
-0.2837381 0.58718294 -0.18297099 -1.1251942 0.2511434 -0.05869421 0.45445868 0.09988066
2.156209 -0.044597715 0.25051597 1.2743523 -0.05506283 -0.09195005 -0.17916137 -0.3254845
00000000: 1f46 91be 9f51 163f bf5c 3bbe 5d06 90bf
00000010: de95 803e 5769 70bd cfae e83e 3b8e cc3d
00000020: 54ff 0940 18ac 36bd a143 803e fa1d a33f
00000030: 9089 61bd 4f50 bcbd 1476 37be e8a5 a6be
