results/sceptr/trained-sceptr-caneval-0/Epoch 44/classifier-44.pth (torch, 2307 bytes, 2 tensors)

scoring_linear1.weight f4 [1, 64]
0.08279845 0.033144485 -0.04301604 0.010987063 -0.041351076 0.14156361 0.13782598 -0.035163023
0.078685224 -0.26937765 -0.10259598 -0.10273157 -0.34810022 0.1294107 -0.13217779 0.1565054
-0.10199846 -0.14869562 0.028019037 0.09784891 0.0035143185 -0.26811543 -0.34085444 -0.039562218
-0.054072917 0.05825921 -0.03195738 -0.040665988 0.0047984864 -0.07780964 -0.113929205 -0.072769076
0.09971241 -0.23904249 0.0046942197 -0.19161117 -0.030298058 -0.077013224 -0.1458874 0.10027242
-0.025708959 -0.01306821 0.0028699394 0.15310812 -0.03248216 0.22788386 0.2649388 0.12546271
-0.011663903 0.21729472 -0.117846854 0.07324427 -0.15505804 0.12679969 -0.20287256 -0.06800419
-0.047429245 0.0057631824 0.05458374 0.07910563 -0.12563623 0.21415761 -0.12269037 -0.17979479
00000000: 3c92 a93d 83c2 073d 9631 30bd 1503 343c
00000010: bf5f 29bd 0df6 103e 4122 0d3e 1a07 10bd
00000020: b825 a13d deeb 89be d71d d2bd ee64 d2bd
00000030: 313a b2be 3d84 043e 9d59 07be f442 203e
00000040: 92e4 d0bd aa43 18be 2e88 e53c 0265 c83d
00000050: 7b50 663b 6d46 89be 7984 aebe fe0b 22bd
00000060: 907b 5dbd 36a1 6e3d bee5 02bd 6191 26bd
00000070: 9f3c 9d3b a95a 9fbd b753 e9bd f407 95bd
00000080: 0536 cc3d 8ec7 74be f8d1 993b b835 44be
00000090: a233 f8bc 1cb9 9dbd 8263 15be a05b cd3d
000000a0: 989b d2bc 0c1c 56bc 9815 3c3b 60c8 1c3e
000000b0: 030c 05bd 635a 693e 0fa6 873e 4c79 003e
000000c0: f419 3fbc 8282 5e3e b159 f1bd 1801 963d
000000d0: 89c7 1ebe c7d7 013e d3bd 4fbe c845 8bbd
000000e0: 2b45 42bd 14d9 bc3b 3393 5f3d 2202 a23d
000000f0: c9a6 00be 224c 5b3e 1745 fbbd 201c 38be

classifying_linear1.weight f4 [1, 64]
0.15663686 0.8119689 0.45518005 1.0054085 -0.8127976 -0.7906759 -0.6010784 0.5004488
-0.7611887 -0.3452056 0.650479 0.029816443 -0.22172616 0.0257592 -0.89364344 0.069881946
0.06009193 0.1333252 -0.37040633 -0.9173835 0.040518366 -0.3220403 0.55633044 0.347621
-1.1900195 -0.7894779 0.479918 1.1363057 0.25480235 0.7663538 -0.98783433 -1.0830183
0.935708 0.5786116 -0.27974015 0.21098322 0.40562326 -0.1783739 -0.8274478 -0.4178934
-0.7349571 1.16337 -0.408554 0.45606378 -0.98549867 0.8612773 0.11435692 -0.91863793
-0.9190546 0.35358036 0.050469443 0.37166968 0.6354757 0.8244094 -0.26479897 -0.4079211
-0.023438452 -1.0478276 1.2297567 1.1396807 0.101830006 0.11161798 -0.28693435 -0.42607895
00000000: 6a65 203e 32dd 4f3f 5c0d e93e 3ab1 803f
00000010: 8113 50bf bc69 4abf 46e0 19bf 6a1d 003f
00000020: 43dd 42bf cabe b0be cb85 263f 9d41 f43c
00000030: 2f0c 63be f504 d33c d1c5 64bf 441e 8f3d
00000040: f522 763d 6786 083e e6a5 bdbe a5d9 6abf
00000050: 96f6 253d 77e2 a4be ac6b 0e3f 61fb b13e
00000060: 8f52 98bf 391b 4abf d0b7 f53e 7772 913f
00000070: 7475 823e c32f 443f b6e2 7cbf 58a0 8abf
00000080: 8f8a 6f3f e41f 143f 1a3a 8fbe fc0b 583e
00000090: daad cf3e a6a7 36be 9ed3 53bf 20f6 d5be
000000a0: 2626 3cbf 4fe9 943f fd2d d1be 3181 e93e
000000b0: a449 7cbf ab7c 5c3f f633 ea3d db2b 6bbf
000000c0: 2a47 6bbf 7c08 b53e 0cb9 4e3d 7d4b be3e
000000d0: 89ae 223f 7f0c 533f bb93 87be 09db d0be
000000e0: ff01 c0bc 371f 86bf ab68 9d3f 0fe1 913f
000000f0: 408c d03d f897 e43d 0fe9 92be 0527 dabe
