results/symbolic/aaprop/trained-aaprop-1538-2/Epoch 40/classifier-40.pth (torch, 8391 bytes, 4 tensors)

upscale.weight f4 [91, 14]
0	0x3eacdd7a	0.33762723
1	0x3c31cfd4	0.010852773
2	0xbe73df12	-0.23815563
3	0x3e2900d0	0.16504216
4	0xbe9e0ff2	-0.3087154
5	0xbe0393b0	-0.12849307
6	0xbdb01d1e	-0.08599304
7	0x3e26eee8	0.16302073
8	0x3d9d4e04	0.07680896
9	0x3e00d80c	0.12582415
10	0xbe1a20d3	-0.15051584
11	0xbe5679e2	-0.20944932
12	0x3e2eed85	0.17082794
13	0x3d32a696	0.0436159
14	0xbebf57fb	-0.3737181
15	0x3d91d60f	0.071209066
16	0x3e0505e2	0.12990525
17	0x3e0d0b90	0.13773942
18	0xbde8a1eb	-0.113590084
19	0x3d428561	0.04749048
20	0x3d49f164	0.049302474
21	0x3d7dcc36	0.06196233
22	0x3e29f96a	0.1659905
23	0xbdd6831f	-0.10474228
24	0x3e45c113	0.19311933
25	0xbdcd1ebd	-0.100156285
26	0xbeaa834d	-0.333033
27	0xbd805b3e	-0.06267403
28	0xbbece93c	-0.007229952
29	0xbd968b4b	-0.07350787
30	0x3c412959	0.011789643
31	0x3e14490d	0.14480992
32	0xbcd96867	-0.02653904
33	0x3b90da52	0.004420557
34	0xbe2b756c	-0.16744012
35	0x3dcd7074	0.10031214
36	0xbe835582	-0.25651175
37	0x3e108bbb	0.14115803
38	0x3d8df35b	0.06931182
39	0x3deaff77	0.11474507
40	0xbd1549d1	-0.03644735
41	0xbc61871b	-0.013765122
42	0xbe149f05	-0.14513786
43	0x3c2966d8	0.010339461
44	0xbe80aba7	-0.2513096
45	0xbe1ad51a	-0.15120354
46	0x3e3d3084	0.18475538
47	0xbded2df9	-0.11581034
48	0x3e704676	0.23464379
49	0xbdf5766a	-0.11985476
50	0xbcd2a137	-0.025711639
51	0xbe58dd02	-0.21178058
52	0xbd8924c2	-0.06696464
53	0xbdc3f582	-0.09568311
54	0xbdc4fbae	-0.096183166
55	0xbe03b2fe	-0.12861249
56	0x3e31c7da	0.17361394
57	0x3daccb26	0.08437185
58	0xbd7d5ce6	-0.061856173
59	0x3e6d1eec	0.23156327
60	0x3d81be6c	0.06335148
61	0xbe2803df	-0.16407727
62	0xbbe6c1fa	-0.007042167
63	0x3d80ddf0	0.06292331
64	0xbe1aeb36	-0.15128788
65	0x3def701f	0.11691307
66	0xba8719dd	-0.001030739
67	0x3e716cb3	0.23576622
68	0xbdbc56df	-0.09196257
69	0xbe6ff21e	-0.23432204
70	0xbe5a6ddc	-0.2133097
71	0x3e3c9501	0.18416215
72	0x3eaf4861	0.34234908
73	0x3d8fe6e9	0.070264645
74	0x3e69998e	0.22812483
75	0x3e7a7244	0.24457651
76	0xbef4af39	-0.47789934
77	0xbe638a99	-0.2222084
78	0x3d457d73	0.04821534
79	0x3dcbc8b9	0.09950394
80	0xbcbd5e52	-0.023116264
81	0xbd343559	-0.04399619
82	0xbee6033e	-0.4492435
83	0xbc8e199b	-0.017346194
84	0xbe1bc966	-0.15213546
85	0x3ca35a97	0.019940658
86	0xbbc0ad98	-0.005880069
87	0xbce19a3a	-0.027539361
88	0xbe2684de	-0.16261622
89	0x3e6a6ab3	0.22892265
90	0xbdd7b126	-0.10531835
91	0xbe54728a	-0.20746818
92	0x3ca7b959	0.020474123
93	0xbe36661d	-0.1781239
94	0x3e2160a6	0.15759525
95	0xbdbd246b	-0.09235462
96	0xbe6ee0ed	-0.2332799
97	0x3e0cb5be	0.13741204
98	0xbe173fed	-0.1477048
99	0xbcde121e	-0.027108248
100	0xbe87c1a6	-0.2651493
101	0xbe6f427d	-0.23365207
102	0x3d64a3ed	0.055820394
103	0xbe96a44f	-0.29422233
104	0x3e7d5a76	0.2474154
105	0x3ddabe75	0.10680858
106	0xbe6d0b1b	-0.23148768
107	0x3e1dda1f	0.15415238
108	0x3e2328ef	0.15933584
109	0xbdaca608	-0.084301054
110	0x3eaff42b	0.34365973
111	0x3c7a9728	0.0152948275
112	0x3e1496be	0.14510629
113	0x3de034d0	0.10947573
114	0xbe8de51b	-0.27713856
115	0x3e82593f	0.25458714
116	0xbda6b7e7	-0.08140545
117	0xbdd5b388	-0.104346335
118	0xbced906b	-0.028999528
119	0xbac6f8dc	-0.0015180367
120	0xbc103932	-0.008802699
121	0xbd807ec8	-0.062741816
122	0x3d6d6e48	0.0579665
123	0xbe683f74	-0.22680455
124	0x3e4d84ba	0.20070162
125	0xbe0f8eb9	-0.14019288
126	0xbb06f619	-0.0020593463
127	0x3d2f8584	0.04285194
128	0xbe0d49a0	-0.13797617
129	0xbd5f1fcd	-0.054473687
130	0x3d8b36db	0.06797572
131	0x3df0dd77	0.11760991
132	0x3dea3caf	0.11437356
133	0xbd9622b1	-0.073308356
134	0xbe66bc96	-0.22532877
135	0x3e733155	0.23749287
136	0x3be49a3a	0.006976393
137	0xbd80acd3	-0.062829636
138	0xbea80637	-0.32817242
139	0x3d9ecd6c	0.07754025
140	0x3e595c62	0.21226647
141	0xbdea3411	-0.11435712
142	0x3d9d4534	0.07679215
143	0xbe1ab26f	-0.1510713
144	0x3e084dd5	0.1331094
145	0xbd1f781e	-0.038932912
146	0x3ddf8f62	0.1091602
147	0x3d0fffe6	0.035156153
148	0x3e456c90	0.19279695
149	0xbc8748db	-0.016514232
150	0xbdaee95f	-0.08540606
151	0xbda1642d	-0.07880435
152	0x3e9d360b	0.30705294
153	0x3e489653	0.19588594
154	0xbe8ee9ce	-0.27912754
155	0xbe579bee	-0.21055576
156	0x3e56534a	0.2093021
157	0x3e61a2f7	0.22034822
158	0x3e70c24b	0.23511617
159	0x3e0a1852	0.1348584
160	0xbe2e5a74	-0.17026693
161	0x3e304d9f	0.1721711
162	0xbe17b7d3	-0.14816217
163	0xbe6df9a8	-0.23239768
164	0xbe5541df	-0.20825909
165	0x3e2a833b	0.16651623
166	0xbe4b3ebb	-0.19848149
167	0x3d362306	0.044466995
168	0x3e8c0014	0.2734381
169	0xbcbb5700	-0.022868633
170	0xbe7789f8	-0.24173725
171	0x3df5e66c	0.1200684
172	0x3e10b57b	0.1413173
173	0xbe672733	-0.22573547
174	0x3e66a54c	0.22523993
175	0xbe0fd24f	-0.1404507
176	0x3e6087d5	0.21926816
177	0xbe8ebdec	-0.27879274
178	0xbda1e748	-0.079054415
179	0xbe2a700f	-0.1664431
180	0x3e899e0e	0.268784
181	0x3d24f70b	0.04027466
182	0xbe074f0f	-0.13213752
183	0xbd57ccaf	-0.052685436
184	0x3e6a9fbc	0.22912496
185	0xbe08da6e	-0.13364574
186	0x3e22f0e0	0.15912199
187	0x3d6679e8	0.056268603
188	0x3d98ef23	0.07467487
189	0xbe156eac	-0.14592999
190	0xbe093edd	-0.13402887
191	0xbe6b285a	-0.22964612
192	0xbe2f3cf9	-0.17113103
193	0xbdf9243f	-0.121651165
194	0xbe35eaab	-0.177653
195	0xbe46911f	-0.19391297
196	0x3e25e449	0.16200365
197	0x3dc59fde	0.09649633
198	0x3e58861a	0.21144906
199	0xbcebd6d2	-0.028788958
200	0x3e71598f	0.2356932
201	0x3d230b83	0.0398059
202	0xbe386e80	-0.18010902
203	0x3dcf0c9b	0.10109826
204	0x3dc56b72	0.09639634
205	0xbe24c5c1	-0.16091062
206	0xbc2c6a01	-0.01052332
207	0x3d447364	0.047961608
208	0x3d74d244	0.059770837
209	0x3e915aa4	0.28389466
210	0xbed24024	-0.4106456
211	0x3e5b0101	0.21387102
212	0xbdfa20e4	-0.12213305
213	0xbcb585ee	-0.02215859
214	0x3dc638ac	0.09678778
215	0x3e53d495	0.20686562
216	0xbe885580	-0.2662773
217	0xbe82960a	-0.25505096
218	0xbdfa51a3	-0.12222602
219	0x3e8e318c	0.27772176
220	0xbe1eedd7	-0.15520416
221	0xbd0b4e0b	-0.034009974
222	0xbe1c6e29	-0.15276398
223	0x3e692ae8	0.22770274
224	0xbec99821	-0.39373878
225	0x3e342033	0.17590408
226	0xbe306194	-0.17224723
227	0x3e8f5828	0.27996945
228	0xbcd73207	-0.026268972
229	0x3d6d1ba1	0.057887677
230	0xbe4b1830	-0.19833446
231	0xbe369820	-0.17831469
232	0xbdb241da	-0.087039664
233	0x3e0a15f1	0.13484932
234	0xbe1dd4df	-0.15413235
235	0x3da5351d	0.08066771
236	0xbf037c9a	-0.51362
237	0xbe4a8697	-0.19777904
238	0xbe14ab3c	-0.14518446
239	0x3de3b312	0.11118139
240	0xbcfd0c97	-0.030889792
241	0x3da39325	0.0798705
242	0x3d9b416d	0.07580838
243	0xbc6fcffc	-0.01463699
244	0x3dba690d	0.09102068
245	0xbe866e60	-0.26256084
246	0x3d5428f5	0.051796872
247	0x3ca0f15d	0.019646341
248	0x3df86ea8	0.12130481
249	0xbe02b919	-0.12765922
250	0x3e1f6f0e	0.15569708
251	0x3dce02e7	0.10059147
252	0x3e017387	0.12641726
253	0x3a9bdd22	0.0011891464
254	0xbcc08d92	-0.023505006
255	0x3d2a1f77	0.041533913

upscale.bias f4 [91]
0	0xbddd5095	-0.108063854
1	0x3e770310	0.24122262
2	0x3e02d3bd	0.12776084
3	0xbdd6dfe6	-0.10491924
4	0xbe56c84d	-0.20974846
5	0xbe016345	-0.12635525
6	0x3e4b16ed	0.19832964
7	0x3dd1ccac	0.10244116
8	0xbe61549f	-0.22004937
9	0xbe716914	-0.2357524
10	0xbe0a0650	-0.1347897
11	0x3e5b11e8	0.2139355
12	0x3d80aed3	0.06283345
13	0xbdfb2744	-0.12263349
14	0xbc558359	-0.013031804
15	0xbcecc23a	-0.028901208
16	0x3c891a37	0.016736133
17	0xbe639a77	-0.22226892
18	0x3d080dab	0.03321616
19	0x3e70560c	0.23470324
20	0x3bd87d1a	0.00660671
21	0x3bc4ca53	0.0060055642
22	0x3c0afc1c	0.008482959
23	0xbdfa1f53	-0.12213006
24	0xbe469ab6	-0.19394955
25	0xbe617bbf	-0.22019862
26	0xbd06726f	-0.032823976
27	0xbe26d352	-0.1629155
28	0x3e07ac4e	0.13249323
29	0x3d829cc5	0.06377558
30	0xbe5ffedb	-0.21874563
31	0x3cc378a7	0.023861242
32	0xbd42f0cf	-0.047592934
33	0x3e29a4ce	0.16566774
34	0x3ea82fbb	0.32848915
35	0x3de3530b	0.110998236
36	0xbe1ea885	-0.15493973
37	0xbe863f84	-0.26220334
38	0xbe1c67c8	-0.15273964
39	0x3e73bde5	0.23802908
40	0xbe094cf6	-0.13408265
41	0x3e357a5d	0.17722459
42	0xbd17a0f8	-0.037018746
43	0x3d48b191	0.048997466
44	0x3e2cfe23	0.1689382
45	0xbdd71fb8	-0.10504097
46	0x3e5848b2	0.21121481
47	0x3d5e74a0	0.05431044
48	0x3d91e47e	0.071236596
49	0x3ba29650	0.0049617663
50	0x3d7dd34b	0.061969083
51	0x3d990d33	0.07473221
52	0x3e754edd	0.23955865
53	0x3d459eea	0.048247255
54	0x3cfd0107	0.030884279
55	0xbe774663	-0.24147944
56	0x3de6d7c1	0.112716205
57	0x3e3e797b	0.18601029
58	0xbc715022	-0.014728578
59	0xbdb04518	-0.086069286
60	0x3da572a3	0.08078506
61	0x3dc9450a	0.09827621
62	0xbe7952b6	-0.24347958
63	0x3e11f8e8	0.14255106
64	0xbd2a51e3	-0.041582
65	0xbd5334ac	-0.051563904
66	0x3db064df	0.0861299
67	0x3c1d7b9c	0.00961199
68	0x3d52c9c9	0.05146197
69	0x3e5dd9a9	0.21665062
70	0xbd805cce	-0.06267701
71	0xbe2196e8	-0.15780222
72	0x3d186984	0.037210003
73	0x3df4e5b1	0.11957873
74	0x3e402dfc	0.18767542
75	0xbd41930b	-0.04725937
76	0xbd5c87e3	-0.05384053
77	0xbe53fe2f	-0.20702432
78	0xbde99026	-0.11404447
79	0x3e7051ff	0.23468779
80	0xbda1164b	-0.0786558
81	0xbe872a26	-0.26399344
82	0xbe380840	-0.17971897
83	0xbcdc7ceb	-0.026915034
84	0xbe7b0950	-0.24515271
85	0xbd03ff1e	-0.03222572
86	0xbd90497c	-0.07045266
87	0xbde3d4eb	-0.11124595
88	0x3d1648e6	0.036690615
89	0xbd9ab5ab	-0.07554182
90	0x3e2d30c9	0.16913141

scoring_linear1.weight f4 [1, 91]
0	0xbd750067	-0.059814837
1	0x3c9ecf4c	0.019385956
2	0xbd5318db	-0.051537376
3	0x3df5d01e	0.12002586
4	0xbc046f98	-0.008083247
5	0x3c8cdeb8	0.017196044
6	0x3cff8fb9	0.031196462
7	0x3d283df4	0.041074708
8	0xbd4b5538	-0.049641818
9	0x3da1baa1	0.07896925
10	0xbcd4fc20	-0.025999129
11	0xbd724f0b	-0.059157412
12	0xbd53c6dc	-0.05170332
13	0x3d090897	0.033455458
14	0xbdc4f07c	-0.09616181
15	0x3dcb7bc6	0.09935717
16	0x3d89d5ce	0.06730233
17	0x3c4f34ab	0.012646834
18	0x3cfd7316	0.030938666
19	0x3da4b464	0.08042219
20	0xbdf4c9b8	-0.11952537
21	0x3c9160ca	0.017746348
22	0x3dddea69	0.10835726
23	0xbe1601f6	-0.14649186
24	0x3d860c39	0.065453
25	0xbdad21e9	-0.084537335
26	0xbce18528	-0.027529314
27	0xbc441c98	-0.011969708
28	0x3d3f0f3b	0.046645384
29	0x3bda75a6	0.006666857
30	0x3d8d0b32	0.06886901
31	0xbb9f4662	-0.004860685
32	0xbb2d41aa	-0.0026436844
33	0xbe4399c9	-0.19101633
34	0x3d5dfefe	0.054198258
35	0x3dc7f5ac	0.09763655
36	0x3c317f0f	0.010833516
37	0xbdd973ab	-0.10617765
38	0x3dacef1a	0.084440425
39	0xbd8d1596	-0.06888883
40	0x3ce708b9	0.028202401
41	0xbcae6271	-0.021287175
42	0xbd448a4f	-0.047983464
43	0x3d0b79bf	0.034051653
44	0x3e69f281	0.22846414
45	0x3c4dbf9a	0.012557888
46	0x3ca8e714	0.020618
47	0xbd0fb50b	-0.035084765
48	0x3d6acc31	0.05732364
49	0xbc5dcd4d	-0.013537717
50	0x3d6b1f20	0.05740273
51	0x3ccff667	0.025386048
52	0xbbaad4dd	-0.0052133636
53	0xbcf796e8	-0.030223325
54	0xbcac6bc1	-0.021047475
55	0xbbe71e5e	-0.0070531806
56	0x3ca69d8e	0.0203388
57	0xbd2e5f82	-0.042571552
58	0xbd97845c	-0.073982924
59	0x3dc8b42e	0.097999915
60	0x3d7114e1	0.058857802
61	0x3d4ee82a	0.050514378
62	0x3ceafccb	0.028684994
63	0xbe178f3d	-0.14800735
64	0x3b90be36	0.004417206
65	0xbcc012f9	-0.023446547
66	0xbbbd43f2	-0.005775922
67	0xbc2cb41d	-0.010540989
68	0x3dc11b64	0.094290525
69	0x3dbca75c	0.09211609
70	0x3d15241d	0.036411393
71	0x3e0821c5	0.13294132
72	0xbd91614b	-0.07098635
73	0x3c9292db	0.017892292
74	0x3e725eac	0.23668927
75	0x3dc88758	0.0979144
76	0xbd13796b	-0.036004465
77	0x3d8ef2ad	0.069798805
78	0xbe1679e6	-0.14694938
79	0x3cb842d2	0.0224928
80	0x3c807105	0.015678892
81	0x3d0f0da5	0.03492512
82	0xbc262660	-0.010140985
83	0x3b4103a3	0.002945163
84	0xbe0e6549	-0.13905825
85	0xbb716094	-0.0036831247
86	0xbcc50ea0	-0.024054825
87	0xbde7bfa0	-0.113158464
88	0xbdfac9d3	-0.12245526
89	0xbceb9b06	-0.028760444
90	0xbd6bc993	-0.057565283

classifying_linear1.weight f4 [1, 91]
0	0x3dad368f	0.08457672
1	0xbd89324a	-0.06699045
2	0xbce0f156	-0.027458828
3	0x3de105ba	0.109874204
4	0x3c1fb2bd	0.009747204
5	0xbfbcab01	-1.4739686
6	0xbd6c5b74	-0.057704404
7	0x3f00f388	0.503716
8	0x3d86c4ed	0.06580529
9	0xbd4f3429	-0.050586853
10	0x3de621b7	0.11236899
11	0xbe7bd0d4	-0.2459138
12	0x3e36dc6f	0.17857526
13	0xbd887b5c	-0.06664154
14	0xbdbf6917	-0.09346216
15	0xbec8f144	-0.3924657
16	0xbe1be9b5	-0.15225871
17	0x3cb2b7f4	0.021816231
18	0x3d0daf9e	0.03459131
19	0x3e040286	0.12891588
20	0xbcd2bf7f	-0.025726078
21	0x3de45909	0.111497946
22	0xbf8223d4	-1.0167184
23	0x3dcdfa5e	0.100575194
24	0x3e32dbc1	0.17466642
25	0x3f7a400e	0.9775399
26	0x3eef3ec7	0.46727583
27	0xbf3659b9	-0.71230656
28	0xbd21e491	-0.03952462
29	0x3eb05a48	0.3444388
30	0x3de45b29	0.111502
31	0xbe5a8447	-0.21339522
32	0x3dc0c30b	0.094122015
33	0x3d624dd4	0.055250004
34	0x3ba94894	0.0051661227
35	0xbd9eeefc	-0.077604264
36	0x3dff3b82	0.12462522
37	0x3df9e1e1	0.12201286
38	0xbdad462c	-0.0846065
39	0xbe1a03ee	-0.15040562
40	0xbe3db570	-0.18526244
41	0xbcbef8b6	-0.023311954
42	0xbe4b2512	-0.1983836
43	0xbefec957	-0.49762985
44	0xbdcad4cc	-0.09903869
45	0xbde49b26	-0.11162405
46	0xbe77dee1	-0.24206115
47	0xbea2041b	-0.31643757
48	0xbf5be0c4	-0.8588984
49	0x3e8402b5	0.25783315
50	0xbe17dae3	-0.14829592
51	0x3cb21e78	0.021743044
52	0x3ee0994e	0.43866962
53	0xbbf1c251	-0.0073779006
54	0xbdc2d10c	-0.09512529
55	0x3dd253ac	0.102698654
56	0xbde80fe1	-0.11331154
57	0xbc6ef9b4	-0.014585901
58	0xbd013bec	-0.031551287
59	0xbe743990	-0.23850083
60	0xbd1888cd	-0.03723984
61	0xbdadad92	-0.084803715
62	0xbf4c7aae	-0.79874694
63	0x3c87984f	0.016552119
64	0xbd51a968	-0.05118695
65	0xbecf9cfd	-0.4054946
66	0xbe8b6edd	-0.2723302
67	0x3e183321	0.14863254
68	0xbe8c4dbc	-0.27403057
69	0x3de035c5	0.10947756
70	0x3da26225	0.07928876
71	0x3d3984de	0.045292728
72	0xbe210f1f	-0.15728424
73	0xbd8e0f6a	-0.06936534
74	0xbd798081	-0.060913566
75	0xbda33c8f	-0.07970535
76	0x3e239324	0.15974098
77	0x3e18829c	0.14893574
78	0x3d93e564	0.07221487
79	0xbe152c14	-0.14567596
80	0x3e1fca2e	0.15604469
81	0xbf88312e	-1.0640008
82	0xbfad4dfe	-1.3539426
83	0xbc509335	-0.012730409
84	0xbd2197e0	-0.03945148
85	0xbf3d7f34	-0.7402222
86	0x3dc8d161	0.09805561
87	0xbe57b82a	-0.21066347
88	0xbe8e8c6a	-0.27841502
89	0x3e1f3fb4	0.15551645
90	0x3e727629	0.23677887
