results/sceptr/eval/trained-sceptr-caneval-5/Epoch 25/classifier-25.pth (torch, 2307 bytes, 2 tensors)

scoring_linear1.weight f4 [1, 64]
0	0x3e000456	0.12501654
1	0x3dcc98db	0.09990092
2	0xbb1f716e	-0.0024329084
3	0xbd995135	-0.07486192
4	0x3d9743df	0.07385992
5	0xbd04b8c3	-0.032402765
6	0x3d9357c0	0.07194471
7	0x3e0ecd7a	0.1394557
8	0xbda187bc	-0.078872174
9	0xbafddf96	-0.0019369002
10	0x3d8e3af9	0.06944842
11	0xb9a6ccf4	-0.0003181469
12	0xbc86ba99	-0.016446399
13	0x3e18ca6c	0.14920968
14	0xbd2e981d	-0.042625535
15	0xbdd29d5b	-0.102839194
16	0x3cbf584d	0.023357535
17	0x3de802b7	0.11328643
18	0xbe179afe	-0.14805219
19	0xbc94a071	-0.01814291
20	0xbd865269	-0.06558687
21	0xbce95396	-0.02848224
22	0x3e037557	0.1283773
23	0xbd94d8c0	-0.07267904
24	0xbe6db346	-0.23212919
25	0xbe07d7c1	-0.13265897
26	0x3c37721b	0.011196638
27	0xbced3fb3	-0.028961038
28	0x3d52682f	0.05136889
29	0x3d5b3690	0.05351883
30	0xbb2e6b4b	-0.0026614245
31	0xbc3f181c	-0.011663463
32	0x3db1df53	0.08685174
33	0xbc9f6f56	-0.019462269
34	0x3ced9d94	0.029005803
35	0x3e53ae60	0.20671988
36	0xbe1a0171	-0.15039612
37	0x3da3688b	0.07978924
38	0xbd4f8628	-0.05066505
39	0xbe02922a	-0.1275107
40	0x3e045e67	0.12926637
41	0x3d017f9f	0.03161585
42	0xbe148c9b	-0.14506762
43	0xbd8e3518	-0.069437206
44	0xbdaa2c0b	-0.08309182
45	0x3e0b16ee	0.13582966
46	0x3cd4ce3d	0.025977248
47	0x3d854a86	0.06508355
48	0xbe152091	-0.14563204
49	0x3d657654	0.05602105
50	0x3e193532	0.14961699
51	0x3c7cbb95	0.015425582
52	0x3d268570	0.0406546
53	0x3b3057c9	0.0026907793
54	0xbdc894ca	-0.09794004
55	0xbdb2e8cd	-0.087358095
56	0x3e00f6b6	0.12594113
57	0x3da16003	0.07879641
58	0x3d12d526	0.035847805
59	0xbb8bb014	-0.0042629335
60	0x3df7a1fe	0.120914444
61	0xbca34b84	-0.01993347
62	0x3d45edff	0.048322674
63	0x3dea96b5	0.11454526

classifying_linear1.weight f4 [1, 64]
0	0x3ea7d530	0.32779837
1	0x3ea0ec70	0.31430387
2	0x3c0ccba5	0.0085934745
3	0xbda377a3	-0.07981803
4	0xbc8d5bb7	-0.017255647
5	0x3ee88621	0.45414832
6	0x3d735ab7	0.059412684
7	0xbdba0ef2	-0.09084882
8	0x3e832520	0.25614262
9	0xbe12f833	-0.14352493
10	0x3f1c78e6	0.61121976
11	0x3ecc2d6d	0.39878407
12	0xbe0a2cef	-0.13493703
13	0xbdd89e4f	-0.1057707
14	0x3ed59bd0	0.41720438
15	0x3ecd2dee	0.40074104
16	0x3e5087bd	0.2036428
17	0xbf2f1b56	-0.68401086
18	0x3de67de2	0.11254479
19	0x3f06409a	0.52442324
20	0xbe30e1de	-0.17273661
21	0xbf1bb488	-0.60822344
22	0xbf4541d6	-0.7705358
23	0x3e8147b3	0.25250015
24	0x3e02dd56	0.12779745
25	0x3e023aa3	0.1271768
26	0x3e0bad27	0.13640271
27	0xbcdc4d2f	-0.026892273
28	0xbf51b160	-0.8191128
29	0x3d8104ad	0.0629972
30	0xbe54cf51	-0.2078221
31	0x3f3bbf2a	0.7333857
32	0x3eb444a4	0.3520862
33	0xbcae251e	-0.021257933
34	0xbe6e4c0f	-0.23271202
35	0x3de9c63c	0.11414763
36	0xbeaabaf8	-0.3334577
37	0x3f048879	0.5177074
38	0xbe9f4fe2	-0.31115633
39	0x3c7def07	0.015498883
40	0x3ea03c43	0.31295976
41	0xbefdfb35	-0.49605718
42	0xbea30f91	-0.31847814
43	0xbdad7853	-0.08470216
44	0x3df19ae7	0.117971234
45	0xbde155fd	-0.11002729
46	0xbe291d3c	-0.16515058
47	0x3ebedc18	0.37277293
48	0x3eca7fb3	0.39550552
49	0xbda5069f	-0.080579035
50	0xbf071434	-0.527652
51	0x3dd39565	0.10331229
52	0xbe34ff47	-0.17675506
53	0x3e98fb37	0.29879162
54	0xbd842152	-0.06451668
55	0xbdde3c62	-0.10851361
56	0xbf4604b6	-0.7735094
57	0x3ec153e1	0.37759307
58	0x3e46fe59	0.19432963
59	0xbe7150d9	-0.23565997
60	0xbe85728a	-0.2606395
61	0x3d5b06a2	0.053473122
62	0x3f0252c4	0.5090754
63	0x3e9b0bf7	0.30282566
