results/symbolic/aaprop/trained-aaprop-2/Epoch 22/classifier-22.pth (torch, 1795 bytes, 2 tensors)

scoring_linear1.weight f4 [1, 14]
-0.2526117 0.12015057 0.24379127 -0.060131032 0.115445234 0.110748544 -0.08627864 0.04894043
0.16247073 0.17506942 -0.1486937 0.045730207 -0.01659483 -0.1751192
00000000: 5256 81be 8111 f63d 6ba4 793e f54b 76bd
00000010: 8d6e ec3d 22d0 e23d dbb2 b0bd c375 483d
00000020: ba5e 263e 6645 333e 2943 18be 994f 3b3d
00000030: e2f1 87bc 7352 33be

classifying_linear1.weight f4 [1, 14]
-0.113426425 -0.16414845 -0.100580156 0.15632361 0.0514108 -0.13104582 -0.09408638 0.21734723
-0.08308306 0.05078377 0.25377992 -0.10045643 0.17109536 0.06769382
00000000: 1d4c e8bd 8816 28be f8fc cdbd 4c13 203e
00000010: 2294 523d e030 06be 5cb0 c0bd 4690 5e3e
00000020: 7427 aabd a402 503d 71ef 813e 1abc cdbd
00000030: 9f33 2f3e 0fa3 8a3d
