results/sceptr/eval/trained-sceptr-caneval-5/Epoch 37/classifier-37.pth (torch, 2307 bytes, 2 tensors)

scoring_linear1.weight f4 [1, 64]
00000000: a541 0b3e 30fd d33d 0d1b 1abd 786b 39bd
00000010: 92be 973d 4050 8bbd 32ca f13d 089f 063e
00000020: 1006 a1bd e66c 2cbd f2ec 6f3d 4d83 1c3d
00000030: 0809 313d b5ee 103e dbb5 8cbd d2f9 a7bd
00000040: adf2 293c 67b5 ab3d d6b5 4abe 8148 06bd
00000050: 67e5 d9bd 42d4 2ebd a87d 003e 6263 abbd
00000060: 6226 6fbe a804 24be f2ea 82bc b9a5 d5bb
00000070: fd5b 933d 7db6 2d3d 94da 25bc c75a 58bc
00000080: 965c af3d 6f2c 8abd 0ccd 583c 4854 8d3e
00000090: 231b 1ebe fad2 ed3d b1ec 64bd 7bda c4bd
000000a0: f103 313e 7982 81bc 574e 34be f459 c6bd
000000b0: 1813 89bd d8b9 113e 4235 babb 9ca2 893d
000000c0: d4f9 29be 8b97 af3d b4b0 103e 12a6 16bc
000000d0: 9b8e 133d 9463 a6bc 3810 fcbd 8dc1 bdbd
000000e0: 59c6 143e 1ffe da3d 02e5 0e3d 32ef 12bd
000000f0: 2a7b 0e3e a2aa 06bd d9bd 543d 83ba b93d
0.1359926 0.10351026 -0.037623454 -0.045268506 0.07409395 -0.06802416 0.11806144 0.13146603
-0.078624845 -0.04209604 0.058575578 0.038211156 0.043221503 0.1415356 -0.06870624 -0.08201946
0.0103728 0.08384209 -0.19795927 -0.03278399 -0.10639458 -0.042682894 0.12547934 -0.08368565
-0.23354486 -0.16017401 -0.015981171 -0.00652 0.0719528 0.042410363 -0.010122914 -0.013205237
0.08562581 -0.06746756 0.013232481 0.27603364 -0.1544004 0.11612506 -0.05588979 -0.09611984
0.1728666 -0.015809285 -0.1760801 -0.09685126 -0.06693095 0.1423105 -0.0056826184 0.067204684
-0.16599208 0.085738264 0.14129907 -0.009194868 0.03602467 -0.020311154 -0.12307781 -0.092654325
0.14528789 0.10693001 0.034886368 -0.035872646 0.13914171 -0.032877572 0.051938865 0.090687774

classifying_linear1.weight f4 [1, 64]
00000000: f1a4 fe3e 4bb7 d03e f326 843d add5 4fbe
00000010: d22d c2bc 7039 2f3f d07c 963d 3be3 a7bd
00000020: 5bb4 d83e 0627 5ebe 74f4 4a3f 646d 0f3f
00000030: c87d 2ebe a82b 21be 43e5 263f 4629 113f
00000040: 26e1 c03e d903 72bf 9443 083e 9aac 2e3f
00000050: 1b06 32be 7954 4bbf e977 90bf 30e9 bc3e
00000060: 5542 3f3e 9f0c 163e d4ac 283e d78c f8bd
00000070: fb45 94bf f879 c03d 09a4 8dbe b423 873f
00000080: 41da db3e bd3d b7bc d2c6 91be 62e1 1b3e
00000090: 0518 edbe 2289 433f 02f5 fbbe 98fc 5b3c
000000a0: a566 ec3e 8712 3ebf 0cdd aebe 6eac 1cbe
000000b0: 183e f33d 8c3b dabd 749c 8bbe 1fc3 203f
000000c0: 8046 073f da67 3bbe 2e80 49bf c4b4 2d3e
000000d0: caed 66be 4dbd ec3e c26e 00be fa90 52be
000000e0: 0f62 8bbf fd6a 0a3f 0f7d 863e 3bfa 8bbe
000000f0: 8b60 dfbe d779 89bc 62b4 343f 7322 e13e
0.49735215 0.4076484 0.064527415 -0.20296355 -0.02370349 0.6844702 0.07348025 -0.08197638
0.423251 -0.21694574 0.79279256 0.5602629 -0.17040169 -0.1573931 0.65193576 0.56703603
0.37671775 -0.9453712 0.13307029 0.6823212 -0.17385142 -0.7942577 -1.1286594 0.36896658
0.18677647 0.14653252 0.16472179 -0.12136238 -1.1583856 0.09398264 -0.2766421 1.0557771
0.42939952 -0.022368306 -0.28472 0.15222695 -0.46307388 0.76381123 -0.49210364 0.013426922
0.46172062 -0.7424702 -0.3415302 -0.15300152 0.11877078 -0.10655889 -0.27267802 0.6279773
0.5284195 -0.18301335 -0.7871121 0.16963488 -0.22551647 0.46238175 -0.12542251 -0.20563117
-1.08893 0.540695 0.26267287 -0.27339348 -0.43628344 -0.01678173 0.7058774 0.43971595
