results/sceptr/eval/trained-sceptr-caneval-4/Epoch 10/classifier-10.pth (torch, 2307 bytes, 2 tensors)

scoring_linear1.weight f4 [1, 64]
000000 3c 99 62 bc 7c fb e8 bb c0 8b 9a bd df 06 f0 bb
       -0.013830479 -0.0071100574 -0.075461864 -0.007325038
000010 0e 5b 21 3d ea 15 a8 3d 46 63 58 3d 20 a0 af bd
       0.039393477 0.08207305 0.05282905 -0.08575463
000020 8f ef c5 3b 16 cc 27 3d eb b4 ef bd 27 cf 53 3d
       0.0060405205 0.040966116 -0.11704429 0.051711228
000030 1a 2a 9a 3c bd 53 bf bb 73 c5 ab 3c 20 77 fd bc
       0.018818904 -0.00583884 0.020968175 -0.030940592
000040 75 f1 19 be dc 3f 80 bd 9c d7 25 bc c7 3e d4 bd
       -0.15033515 -0.0626218 -0.010122206 -0.10363536
000050 de 7e 5a 3d bd 8c 08 3d d6 92 97 bd c3 7c cc 3c
       0.053343646 0.033337343 -0.074010536 0.024961835
000060 aa a2 15 be 3d 87 08 3e 04 54 00 be 51 33 be bc
       -0.14612833 0.1333284 -0.1253205 -0.023217829
000070 7a 67 ca bd 59 f0 8d 3d 32 e2 a3 bd f9 1e 06 bd
       -0.09883018 0.06930608 -0.08002128 -0.03274438
000080 dd be 0e 3d f5 a3 9e 3b db 64 ff bc 85 cc 37 3e
       0.03484999 0.0048413225 -0.031176021 0.17949112
000090 00 70 8a bd 0b 30 63 bd 73 9a c6 3d 45 cd 1a 3e
       -0.067596436 -0.05546574 0.096974276 0.15117367
0000a0 35 3b a8 bb ef 22 34 3e bc b6 2e bd e2 a2 ef 3c
       -0.005134011 0.17591451 -0.042654738 0.029252473
0000b0 f8 43 15 3c df 3d 96 3d 70 c3 df 3c 5a 76 2e 3e
       0.009110443 0.0733602 0.027314872 0.17037335
0000c0 ff 6f 79 bd a2 76 7d 3d 84 42 ce bc 37 bd ef bc
       -0.060897823 0.061880715 -0.025178201 -0.02926503
0000d0 c6 6a 63 3c ee 18 8d bd d9 b2 a5 bd 0c 0a ed 3d
       0.013880437 -0.068895206 -0.08090753 0.11574182
0000e0 b9 c6 09 be 82 73 b5 bc 17 5c 76 3d 67 fe a7 bd
       -0.13454713 -0.022149805 0.060146417 -0.0820282
0000f0 c9 c2 9e 3d c1 fd 90 3c f7 19 af bc 15 5a 3e 3d
       0.07751996 0.017699124 -0.021374686 0.046472628

classifying_linear1.weight f4 [1, 64]
000000 4f d8 4d be cc 1d 5b 3e 95 56 76 3d bc 97 24 3e
       -0.20102046 0.21398085 0.060141165 0.16073507
000010 d7 46 8f bd f2 21 fd 3c 49 0f 8b 3e b8 f8 a9 bd
       -0.069959335 0.030899975 0.271601 -0.082993925
000020 99 88 31 be e0 ea 8b be dd 92 60 3e 9b f5 41 be
       -0.17337264 -0.27327633 0.21931024 -0.18941347
000030 75 93 10 3d 48 d6 5a be e6 61 c7 be 5a bf 0d be
       0.035296876 -0.21370804 -0.38941878 -0.13842526
000040 f8 d7 40 3e 1c 4a e5 bd c9 38 52 be 50 08 6c bc
       0.18832386 -0.11195776 -0.20529474 -0.014406279
000050 68 a1 12 be b1 ce 5e 3e 28 a2 74 bd 50 8f 85 be
       -0.14319384 0.21758534 -0.059724957 -0.260859
000060 6b 99 e4 3d d5 ac 1a be 1e c0 12 3e b0 1c 93 3d
       0.11162075 -0.15104993 0.143311 0.07183206
000070 6d f2 76 3d 33 4a 17 3c 20 b9 9f bd e7 84 65 3e
       0.06028979 0.009233999 -0.07798982 0.2241398
000080 03 9b 3c be a4 3d 95 3d 09 6f 05 bd 33 f5 01 3e
       -0.18418507 0.07287148 -0.032576595 0.12691192
000090 1b 01 87 3d 59 e0 5e be 9b 41 af bd 38 e4 a6 bb
       0.06592008 -0.2176527 -0.08557435 -0.0050931238
0000a0 ec 3b 5c 3d 4a e9 3a be 25 de a8 3d b6 b2 95 3e
       0.053768083 -0.18253055 0.08245496 0.29237908
0000b0 ac dc 5a 3e b1 6c 42 bd 3f 5d d0 bd 0e 42 2d ba
       0.21373242 -0.047466937 -0.10174035 -0.0006609269
0000c0 c7 3c b1 bd cb 31 b8 3d 6c 8c de 3b 94 94 a1 bd
       -0.086541705 0.08993872 0.006791642 -0.07889667
0000d0 d7 96 37 3e 0a 7c 4a bd 75 52 14 bd c3 c9 1f bd
       0.17928635 -0.0494347 -0.03621145 -0.039010774
0000e0 50 fc a6 bd 3b 2e 32 3e 46 16 cd bd 8f a9 fc bd
       -0.081535935 0.17400448 -0.10014014 -0.12337028
0000f0 0c 2a 3f 3c 45 96 cd bd 6b e8 c0 3d 02 0b bd 3d
       0.01166774 -0.10038427 0.0941933 0.09230615
