good-results/symbolic/trained-random-1538/Epoch 45/classifier-45.pth (torch, 8519 bytes, 4 tensors)

upscale.weight f4 [192, 5]
00000000: 3d56 eb3e 4205 c43e d8f0 2ebd dc81 ae3d
00000010: 3f9f 42be 7f93 be3e 29c9 2c3d cfe4 4a3d
00000020: b86c f73d f78a 67be c82e 8fbe cacd b1bd
00000030: a72b 8dbd 4bd4 963e 9d4f aabe 1ddf 94be
00000040: dfc8 413d 7ca4 bc3e cf06 9b3e a0b7 12bf
00000050: f9a3 153e 9ce5 32bd 3154 d2be 9b9d 9ebe
00000060: 01cc 8dbd 56f1 a0be 165d 113e d055 963e
00000070: 0f6b dabe 9bea 023f 2967 0fbf 468f 15bf
00000080: ce27 b73d ecc8 1fbe f94f df3e 7e53 ec3d
00000090: dbb7 e6be 26b2 42bd 4671 3abe af06 943c
000000a0: 8897 193e 200b 0e3f 4e6b 87be 8062 f1bd
000000b0: 9067 debe ac68 873e f8f7 16bf 4065 7dbe
000000c0: 1c9a a63e 8bbb 193e 1166 3abe 08d9 84be
000000d0: f364 8ebc f9e4 8fbe d085 4a3e f425 653e
000000e0: 7788 c3be f49b c7be 73a4 c13d 07ba db3e
000000f0: b2ef 413e 8a02 0f3f 50da a8be 0afc 98be
00000100: 4df4 43be a06f fb3e e9cc ab3e a51e cfbe
00000110: 7800 c03e 716c 6ebe bed6 a73e 4736 733e
00000120: b7b0 41be 283d 5a3e db9e 7cbe 4606 0abf
00000130: 7763 8dbe 2c37 c23e fee0 67be af25 013e
00000140: c3d1 86be b966 193f 71fe 85bd b726 9abe
00000150: 1594 7cbe 8010 f93d c1d6 133f deef 3a3e
00000160: 9602 55be c88a a43e db57 39be a395 8dbe
00000170: 9a50 203e c5bb ccbd 67af 43be c952 483e
00000180: c37e a33e f9f0 053e b563 f83e 52ea 59bd
00000190: a07b dc3d 93f0 1abf 893f 653e a401 2c3e
000001a0: b51e 283e 93a1 cabe 5661 063e e571 f6bd
000001b0: e2f9 18bd abf7 f2bc ba72 a1be e126 c03e
000001c0: 1822 3bbd 8284 083e bee8 683e 1298 e03e
000001d0: e3c2 013e 8ea9 88be 25f2 18bd 8d36 98be
000001e0: ec3d b63e d13b 41be 163d 693e be03 9e3e
000001f0: 392a 8ebe 4478 bfbc 8139 8b3e b2cc cf3e
00000200: 6c1e 98bc 6685 afbe 39ae 60bd 5d58 113f
00000210: 062a d9be bdd9 ca3d 3ace fcbe 724f 94be
00000220: 5755 08bf 54e9 3b3e c333 cfbe 41c0 7abe
00000230: 593e 833e c892 b13e c2ee 813d 9a7f 943e
00000240: c454 e6bd 15e4 75be e247 89be 7f89 2bbb
00000250: 7b5c 9fbe 7ce5 9b3d b916 37be da69 35be
00000260: 8d51 0a3e 2e9a abbe 1a90 75be 7724 2a3d
00000270: 2548 7b3c 6eb9 73be ab77 abbe 782b ba3e
00000280: 3ffe 85be fe9b 0c3f ad85 c73d b071 683e
00000290: fd11 c5be fcf2 1fbe 6c8a 3cbe 2a69 a33e
000002a0: 3d52 263e e248 9cbd dd19 d4bd 6038 dd3d
000002b0: fb8e 81bd 77e7 01bf 96d6 043f cfed 0d3f
000002c0: a4d6 b53e 1470 c5be 7112 513e 1b3b 38be
000002d0: 81d7 6ebe 7e65 c03e beff 39be 2317 a1bd
000002e0: 1314 503d c38d f73d f716 13bf 50b4 393d
000002f0: de22 42be 8b34 2c3e 44ad f83e 983d c8be
00000300: 6d55 9cbd ca4c 77be 0149 24be dabd d6bd
00000310: e632 af3e c1a5 09be c936 dd3d 0df7 4fbe
00000320: d545 623d cfca c9bc d74e c4be 542e 723e
00000330: 1863 68be 1588 e23e 4ad8 e43e a6f3 08be
00000340: ce59 763d 7891 4cbe 606f 8abe c1f0 07bf
00000350: 67f5 c73e 1ccf d4be e115 903e d620 803e
00000360: 7364 19bf 994d 1dbe e68a 12be 4859 c9bd
00000370: a56b 9b3e 58a3 cf3e 5b10 dfbe 1149 db3e
00000380: ed79 6f3e ba67 d23e a553 f13d ce29 5b3e
00000390: af5e 2dbe fe23 4b3d 79d6 51be 865f d93e
000003a0: fac2 bebe 27e3 febd a965 f3be 76db 3fbe
000003b0: 531f 84be 19f9 983e 0c22 68bc 879b c53e
000003c0: 90b8 2b3d 8e4b f7be 5f52 c8be fce3 fa3d
000003d0: 7352 ca3e d6d8 8dbe fb57 093e 3002 3fbe
000003e0: cde6 85be 6837 cd3e d520 31bd fc71 7c3e
000003f0: 5ebc 9cbe 23b3 6ebe fc9d 673e 638d 32bc
0.45964232 0.3828526 -0.042710155 0.085208625 -0.1900606 0.37221906 0.04218403 0.049534615
0.12081283 -0.22611605 -0.2796538 -0.08681829 -0.06893092 0.29458842 -0.33263865 -0.29076472
0.047310706 0.36844242 0.30278632 -0.5731144 0.14613332 -0.043676004 -0.41079858 -0.30979618
-0.06923676 -0.31434125 0.14195666 0.29362345 -0.42659804 0.5113923 -0.56016785 -0.5842174
0.08943139 -0.1560399 0.43615702 0.11539362 -0.45062146 -0.047533177 -0.18207273 0.018069593
0.14999211 0.55485725 -0.26449054 -0.117863655 -0.43438387 0.26447046 -0.5897212 -0.24745655
0.3253945 0.15012948 -0.18202998 -0.25946832 -0.01738212 -0.2810438 0.19777608 0.22377759
-0.38190052 -0.3898617 0.09455194 0.42915365 0.18939093 0.5586325 -0.3297906 -0.2987979
-0.19136162 0.491086 0.33554772 -0.40453067 0.37500358 -0.23283555 0.32781023 0.23751174
-0.18915068 0.21312392 -0.24669974 -0.5391582 -0.27614948 0.37932718 -0.22644421 0.12612031
-0.2633191 0.5992237 -0.065426715 -0.30107662 -0.24665864 0.1216135 0.57749563 0.18255565
-0.20801768 0.32137132 -0.1809992 -0.27653226 0.15655747 -0.09996752 -0.1910988 0.1956283
0.3193265 0.13080205 0.4851357 -0.05320198 0.10765767 -0.6052334 0.22387518 0.16797501
0.16417964 -0.39576396 0.13123068 -0.120334424 -0.03734768 -0.029659113 -0.31532842 0.37529662
-0.04568681 0.13331798 0.22745034 0.4386602 0.12672 -0.2669186 -0.037340302 -0.2972912
0.35594118 -0.18870474 0.22777209 0.3086223 -0.27766588 -0.023372777 0.2719231 0.40585858
-0.018569194 -0.34281462 -0.05485365 0.56775457 -0.42414874 0.099048115 -0.49376088 -0.28966862
-0.5325522 0.18350726 -0.4046918 -0.24487402 0.25633505 0.34682298 0.063443676 0.29003602
-0.112466365 -0.24012788 -0.26812655 -0.0026174483 -0.31125244 0.0761213 -0.17879762 -0.1771616
0.13507672 -0.33516067 -0.23980752 0.04153868 0.015337025 -0.23801205 -0.33489737 0.3636129
-0.26170537 0.54925525 0.097422935 0.22699618 -0.38490286 -0.15620035 -0.18412179 0.3191617
0.16242309 -0.07631089 -0.103564955 0.10801768 -0.063260995 -0.5074381 0.5188993 0.5544099
0.3551532 -0.3856207 0.20417191 -0.17991297 -0.23324396 0.37577432 -0.18163964 -0.07865741
0.050800394 0.12087586 -0.57456917 0.045337975 -0.18958613 0.16816919 0.4856969 -0.39109492
-0.07633481 -0.24150386 -0.16043474 -0.1048543 0.3421852 -0.13442136 0.10801465 -0.20309086
0.05524238 -0.02463284 -0.383414 0.23650485 -0.22694051 0.44244447 0.44696265 -0.13374195
0.06014424 -0.19977367 -0.27038097 -0.53101736 0.39054415 -0.41564262 0.28141692 0.25025052
-0.599189 -0.15361632 -0.14310798 -0.09831482 0.30355564 0.4055431 -0.43567166 0.42829183
0.23386355 0.41094762 0.11783532 0.21402666 -0.1693065 0.04959487 -0.20491971 0.4245569
-0.3725813 -0.124456696 -0.47538498 -0.18736061 -0.25805148 0.29877546 -0.014168274 0.3859522
0.04192406 -0.4829983 -0.39125344 0.12250516 0.3951603 -0.27704495 0.13412468 -0.18653178
-0.2615265 0.40081334 -0.0432442 0.24652857 -0.30612463 -0.23310523 0.2261886 -0.010897967

upscale.bias f4 [192]
00000000: cc63 72bd 43f6 55be 5e30 a33e 79fc 003e
00000010: 294a 2ebe ae7a 36bd 719c 853e b3a5 263e
00000020: c722 7d3e 978b a63e 0439 59be 829c 69be
00000030: 25be 553e fe81 d6be 8c13 80be 6423 0a3e
00000040: 871b a5be efe0 3b3e 75b3 a2be 11cb d7be
00000050: b9e4 8b3d 0de0 95be cc47 c7be e8c6 0cbe
00000060: 6240 6abe 5970 4a3e 31da 9b3e 8833 cb3e
00000070: 6d0d 65be 4dee 75be 3170 623e d804 cebd
00000080: fca1 8e3e 4fe2 bfbe 0c1f d2bd f39d 57be
00000090: 6682 1cbe 0fed 83bc 95ac fbbc ac62 adbd
000000a0: be86 4e3e 49bd 30be 53a1 2a3c 49ad 31be
000000b0: dfe5 23bd c950 b1bd 4768 e0be 9a78 4bbe
000000c0: 9718 d13e a4e2 f33c 0d5d 543e dc44 faba
000000d0: bed0 6dbd 2744 c9bd 5242 2cbe 8e38 3dbe
000000e0: 0c2c 87be 8df6 ab3e b835 bfbe 49d4 523e
000000f0: cc01 c0be 5843 263b 3687 a33e 9aaf 423e
00000100: 41df 60bb 6931 cd3e eb21 45be 0364 95be
00000110: 87a4 b23e 8af3 1abe 9048 743c a1f4 9fbd
00000120: 4de7 edbd 6789 a4be 19d6 00bd ef78 d7be
00000130: 2946 a3be 5fef 843e 8b87 36be 7af1 31bd
00000140: 6611 6abd da38 a03e 965c e8bd d974 f43c
00000150: cf32 943e d101 29bd 583e c4be 56c0 2d3d
00000160: f4f0 0bbe e671 65be 5cba 9c3e e580 63bd
00000170: a3b0 853d 1592 bdbe c520 36be 10c2 5f3e
00000180: 0774 c3be f50d 1ebe 9072 e03d 3314 b4be
00000190: 1be6 1e3e 92b1 10be f85c ab3e 6c2e 47be
000001a0: f251 0ebe 72e6 02bd 8cc2 c53e fd0b 62be
000001b0: 239f bb3e c47c 953d 8563 9c3e 7783 b63e
000001c0: e615 65be 92aa c8be aede 82bd e6bf 6fbe
000001d0: 2d28 ae3e b0db 473e 6cd8 c63d 3567 c83e
000001e0: 583e 413e bf0d 1cbe f156 c43e 561e 113e
000001f0: 9512 6bbe d022 79bd 893e cebe 793c fc3d
00000200: d414 ad3e 0f19 16be 1b45 b4bd 41b0 dabd
00000210: 6bf7 3ebe 5851 d4be fc8f 9f3e d916 a23e
00000220: 0927 f13e 3a1f 54be 82b1 c43e afcd 61be
00000230: 44c5 7cbc 8d52 4b3d aa62 fe3d f701 363e
00000240: b080 633e 7a3f 66be 7c0b 6abe b2c2 383e
00000250: cbe4 7c3e bff1 81be a181 d4be 769e c03e
00000260: ff23 5d3e 640a ad3e f550 8fbe 9456 7cbd
00000270: 8506 733e 55fc cf3e 9fe4 7c3e 0bc3 5abe
00000280: 4485 6c3e f201 e5bd ef0c dbbd c5e7 a83d
00000290: 3f71 75be 71d6 d2be f453 b4bc 8b24 a23e
000002a0: 7cc1 c73b 286d 98bd 7bd9 babe 41b7 57be
000002b0: acc0 de3e 32e2 70be 62ec ee3d a428 d23d
000002c0: 411c bf3e 1fd9 adbe f489 95be 03d8 6e3e
000002d0: b45e ac3e 1f4d 393d 269c 1fbd 898b ab3d
000002e0: b38c b93e a88a b33d 9829 f93d c8c7 5abe
000002f0: b367 c23e 6e75 8e3e ddb9 b2be 3422 4d3e
-0.059177205 -0.20894723 0.3187284 0.1259631 -0.17020477 -0.04455059 0.26095918 0.16274147
0.24720298 0.32528374 -0.21213156 -0.22813609 0.20873316 -0.4189605 -0.25014913 0.13490063
-0.32247564 0.18347524 -0.3177754 -0.42147115 0.06830735 -0.292725 -0.38921964 -0.13747752
-0.22876123 0.1976942 0.30439904 0.39687753 -0.22368403 -0.24016686 0.2211311 -0.100595176
0.2785796 -0.37477347 -0.10259828 -0.21056347 -0.15284118 -0.01610425 -0.030721942 -0.08466086
0.20168588 -0.17259707 0.010414439 -0.1735126 -0.040014144 -0.08657987 -0.43829557 -0.19870225
0.40839073 0.029771157 0.20738621 -0.0019094008 -0.0580604 -0.09827452 -0.16822174 -0.18478605
-0.26400793 0.3358654 -0.37345672 0.20588793 -0.3750137 0.002536973 0.31939095 0.19012299
-0.0034312757 0.4007676 -0.1925122 -0.29177865 0.3489115 -0.15131965 0.014909878 -0.07810331
-0.11616383 -0.3213608 -0.03145418 -0.42084453 -0.31889465 0.25963876 -0.17825143 -0.04344318
-0.0571455 0.31293374 -0.11345784 0.029840874 0.28945014 -0.041261498 -0.38328815 0.042419754
-0.13666135 -0.2240673 0.3061093 -0.055542845 0.065278314 -0.37025514 -0.17785938 0.21851373
-0.3817446 -0.15435012 0.10959351 -0.3517166 0.15517466 -0.14130238 0.33469367 -0.19451302
-0.13898447 -0.03195805 0.3862499 -0.22074886 0.3664485 0.07299188 0.30544677 0.35647175
-0.22371635 -0.39192635 -0.06390129 -0.23413047 0.34015027 0.19517398 0.09709248 0.3914124
0.18871439 -0.15239619 0.3834758 0.14171728 -0.22956307 -0.060824215 -0.40282086 0.12316222
0.33804953 -0.14657997 -0.08802243 -0.10678149 -0.1864907 -0.4146831 0.3116454 0.31658056
0.47100094 -0.20715037 0.38416678 -0.22051118 -0.015427891 0.049639273 0.124211624 0.17774187
0.22217059 -0.22485152 -0.22855943 0.1804302 0.24696653 -0.2537975 -0.4150515 0.37620896
0.21595763 0.3379699 -0.27991453 -0.061606005 0.23732956 0.40622202 0.24696587 -0.21363465
0.23097712 -0.11182012 -0.10695826 0.082473315 -0.23968981 -0.4117923 -0.022012688 0.31668505
0.006096063 -0.07442695 -0.3649405 -0.21066 0.43506372 -0.23523787 0.1166618 0.10261658
0.37326244 -0.33954713 -0.29206812 0.2332459 0.33666003 0.045239564 -0.038967274 0.083762236
0.36240157 0.08766681 0.121661365 -0.21365273 0.3796974 0.27823967 -0.34907427 0.20032579

scoring_linear1.weight f4 [1, 192]
00000000: 780b 60b9 3a76 bc3d 78e6 a5bc d08e 7dbd
00000010: cf8e e03d 6d88 4fbd d99e d93d 373b 223e
00000020: 25b1 c4bd 404b ca3d 1549 8a3d 21fb e23d
00000030: 34ac 07bd c180 b0bc 3937 a0bd 5c19 dbbc
00000040: 88e1 48bd eae6 febd 94bf 1b3d 9591 cabd
00000050: 3689 f93c 7f2b d6bc c8b4 b9bd f9e5 e13c
00000060: e7b0 533d 5086 cabd cbe3 a7bd 21a0 bb3d
00000070: eadb 6dba 6c2a 3dbc bfec fe3b ddd0 c0bc
00000080: e48b f1bc c25b 0b3c a994 023d 0974 203d
00000090: 0789 7cbd bee3 d53c 0e58 aa3d 832d d53b
000000a0: b43a f63c 1533 b6bd 76fb 5abd 4344 743e
000000b0: 5ba6 86bd 8864 3bbd 511a 11bc 080a 53bd
000000c0: e35e 1a3e aeb0 6bbd 0049 3cbc b0d6 3a3e
000000d0: a477 763d a8c2 ec3d dc31 09be a38a 8ebc
000000e0: 1924 c73b 82a7 ab3d 8b12 0b3d 2ab7 893d
000000f0: c839 30bd 2a68 32bc 73a5 00be 1236 bfbc
00000100: 743a fe3d c1b3 3b3e fb7d 143e 7770 43be
00000110: 20ad 863d 47e6 50bd b9c3 d43d 47c5 d13d
00000120: e3fe 3abc 6032 2fbc 4c57 083e d71e 5bbd
00000130: 3a50 213c 5596 c0bd 9261 b0bc 7381 a53c
00000140: 11d5 b93d 1966 e53d 120b c3bc 471a 2ebc
00000150: a174 68bc bac1 c23c 300e dcbc 175a 563c
00000160: de54 68be d494 0c3c b1fc b3bb 965a 183d
00000170: 5e79 ae3c ed4a eebd 551f a73d 1c12 a8bd
00000180: 1d2f 923c 9896 313c 143a a8bd 7b8f f4bc
00000190: 8cbc 1b3e 3517 2b3e 23d6 073e 5721 a7bd
000001a0: 94ec 08bd 7b06 9c3c 3772 a63d 98b9 78bc
000001b0: a29c a2bd 73d3 393d 6068 b93d 6a16 e53d
000001c0: 05c8 b0bb 278c 363d 1ae5 4abb 61bf fcbd
000001d0: e0d9 e63d 74dd cdbd c65a d6bc e83c ac3c
000001e0: 7c74 5abb 5a55 c5bd accf 283c 99cc cfbd
000001f0: caa9 07bd a5d7 f7bc fe19 143c 64c1 183d
00000200: fd3c f4bd 4b91 913d 1853 e93c f421 093d
00000210: 2cdb f03d 3be3 c2bd bb3b 25bd 422c 4c3d
00000220: 7ce8 8e3d ee75 223c 80b2 683e b64d 73bc
00000230: ba6b 133d 84d3 87bc 114c 1abd 9b01 f73c
00000240: 5766 01bd 6e4d 103d a49f 883d e4ef fabd
00000250: bad0 0a3d 1a31 c5bd bdb1 513d 3b92 97bd
00000260: e9c2 723c 115d 443d fefe 563d a228 64bc
00000270: 31e9 79bc 431e 133e 02c7 50bd 9e80 163e
00000280: 337c 183e c55d 813d 7e08 823d 007c 09bb
00000290: 0eac 3b3d d755 babc 3b80 06bd dbee 2b3d
000002a0: 97d6 febc 9ddf 9ebd 253a a43c 538f 633e
000002b0: ae6e c73d 6717 81bd 2abe b0bc 34ac db3d
000002c0: 00cd 29bd 432f ae3c 9e5f b43d be49 76bc
000002d0: ea48 aa3d 2413 103e 79f9 89bd b04a 46bd
000002e0: ab67 0a3e c33c 19be f2dc a6b8 60f0 cb3c
000002f0: b71c 39bd 609c 55bd 7476 493d 9d66 ea3b
-0.00021366577 0.092022374 -0.020251498 -0.061903775 0.109647386 -0.050667215 0.10626001 0.15842901
-0.096041 0.09877634 0.067522205 0.11083055 -0.03312321 -0.02154577 -0.07823033 -0.02674549
-0.04904321 -0.12446387 0.0380245 -0.09891049 0.030460935 -0.026143787 -0.090676844 0.02757548
0.05168238 -0.09888899 -0.08197745 0.091614015 -0.0009073602 -0.011545759 0.007779687 -0.023537094
-0.02948565 0.0085057635 0.031880055 0.03917316 -0.061654117 0.026109572 0.08317576 0.0065056696
0.030057289 -0.08896462 -0.053462468 0.23854165 -0.065746985 -0.04575017 -0.008856372 -0.05152324
0.15075259 -0.05754154 -0.011492014 0.1824596 0.060172692 0.11560565 -0.13397926 -0.017400092
0.006077301 0.08381559 0.03395323 0.06724389 -0.043023854 -0.010889092 -0.12563114 -0.023341212
0.12413493 0.1833029 0.14501183 -0.1908587 0.0657599 -0.05100086 0.10388894 0.10242706
-0.011413309 -0.010693163 0.13314551 -0.053496208 0.009845788 -0.094036736 -0.0215309 0.020203328
0.09073842 0.11201114 -0.02380899 -0.010626382 -0.014187963 0.023774017 -0.026862234 0.0130830025
-0.22688624 0.008580405 -0.0054927696 0.037195764 0.021298107 -0.11635385 0.08160273 -0.08206579
0.017844731 0.010839127 -0.082142025 -0.029853573 0.15208644 0.16708072 0.1326528 -0.08160656
-0.033428743 0.019046059 0.081272535 -0.015180968 -0.079400316 0.04536767 0.09053111 0.11185916
-0.005394938 0.044567253 -0.003095931 -0.1234119 0.11272025 -0.100520045 -0.026166331 0.021025136
-0.003333359 -0.0963542 0.010303419 -0.10146446 -0.033120908 -0.030254195 0.0090394 0.037293807
-0.11925695 0.071077906 0.028482005 0.033479646 0.11760554 -0.09515997 -0.040340167 0.049846895
0.069779366 0.009915812 0.22724342 -0.014850071 0.035991408 -0.01658035 -0.0376702 0.030152133
-0.03159174 0.035230093 0.06671074 -0.12252787 0.033890463 -0.09628506 0.051194895 -0.07400938
0.014816978 0.047940318 0.052489273 -0.013925703 -0.015253351 0.14367013 -0.05097104 0.14697501
0.14891128 0.06316713 0.06349276 -0.002097845 0.04581838 -0.02274601 -0.032837134 0.041975837
-0.031108184 -0.077574946 0.020047257 0.22222643 0.09737907 -0.06303292 -0.021575052 0.107262045
-0.04145527 0.02126277 0.088073 -0.01503223 0.083146885 0.14069802 -0.06737036 -0.04841107
0.13516109 -0.14964585 -7.956651e-05 0.024894893 -0.0451934 -0.052151084 0.04918523 0.0071533457

classifying_linear1.weight f4 [1, 192]
00000000: 3a27 ec3d ba32 6a3e 18e6 deb8 5db7 1b3e
00000010: eaad 4a3d 099f 03be 1e7e 08bf c855 9abe
00000020: 5776 f03e e6b5 a8bd 8b42 0abd 00b1 b2bd
00000030: 2d9a 923e 87a4 333e 823a 243e a442 9abf
00000040: 99e5 cb3d aaef f83c 37b9 56bd 032d 123f
00000050: 5ab3 e7bd 6d76 20bd 84a7 10bd c227 3a3e
00000060: 0261 d73d 025a 683c 5c7a 3a3f 6db9 c5be
00000070: 9b3e 513e 98d5 59bd 5372 e5bc 45b9 e4bc
00000080: 798c ac3d 1721 36bd 3040 acbe e51b 9d3e
00000090: aeb9 473c 9e83 5fbe 9f8a fe3c a9b0 e03c
000000a0: 65a1 733d b4a1 d53f 5ffd 13bf 153b 30bd
000000b0: b0bd ee3d b5a8 633d e4ab ab3d c86e 78bf
000000c0: 6113 eabd 8bb2 e4bd edf0 43bd 7349 bebe
000000d0: 1721 9e3e 2918 bc3d 9549 ef3d 5dd7 823a
000000e0: 5b8f 1e3c f517 d1bd 5a5e 5c3e 661e 713e
000000f0: 7cb5 07be a3aa 8d3b 3a22 343d 8003 f53d
00000100: cb74 5abe 43f9 48be 7320 7fbd a7da 533f
00000110: f671 973d ecc9 113e cf01 dbbe fbe7 bebd
00000120: b037 da3d 0c72 c33d 893a 053c 7bee 793e
00000130: 5335 2b3f 0a38 8b3c 5268 dd3c b27c 5fbe
00000140: efce dfbd b8de b63c 0981 83be c0b3 cabc
00000150: 9a89 8dba c9b1 acbe c159 073e 2350 5e3d
00000160: 8abe 803f 2f92 2d3d 8818 8abd ca08 68bd
00000170: a1fc 36be 146d 133e 2747 51bd af54 d7bd
00000180: a58c 573d 8b63 0abe 7026 683e 0e4f 0b3e
00000190: 0e19 aabd 841c 9fbe 4060 51be ae97 e0bd
000001a0: 70ce f8bc 0d30 963c 16bc 0ebe c25e bfbd
000001b0: bce5 ebbd 3493 de3d ca31 0abf b8f4 bbbd
000001c0: e55b c53e abe6 0e3f efcb a23f 686d 993d
000001d0: e837 c1be 92ae 4c3c e377 8bbe bc33 94bd
000001e0: c010 91bd 6d27 133f a044 44be 260d 0c3e
000001f0: 8f6b c6bd 877b 1dbf a0f3 19be 8dee 1d3d
00000200: 56ec df3d d4ac 193e f565 3a3e b48e 10be
00000210: 5c6d cc3c f86c 76bb 2f09 953e 59da 63bd
00000220: db95 64be 2d91 f83b b794 98be fe1f debc
00000230: 29f7 b5be 5940 0a3e 0c26 803e f833 0d3e
00000240: 9f31 06bd a662 bcbc 655f cabc 02ba dbbd
00000250: 5dbb 25bf 2afa 6e3e 24a8 c43d 8a17 1fbc
00000260: 71fc da3c 2662 2cbe f381 b6bc 1dc7 babf
00000270: 150f 983d da37 06bf d310 aebe 1c53 513d
00000280: e8e8 16be afe9 69bc 292d db3c 00c4 b63b
00000290: 87eb 42bd dc81 033e 4329 1e3f f746 babe
000002a0: 7b34 a43d a2cc 8f3e f063 02be 0400 99bd
000002b0: 8859 71be 2de6 873e 3bbb 1a3f 7a1a 32bf
000002c0: 40c2 cbbd 3b54 0d3d 4384 9a3d 0438 3fbf
000002d0: 2dd2 5d3e 9127 05be aadd 12bd 0e1a 133f
000002e0: 2c8d 4cbf 3999 383e 7e95 46bd faf2 aabd
000002f0: 5a6a 513d 7d22 263c 770a bd3d cc1c 12bc
0.115309194 0.22870913 -0.00010628643 0.15206666 0.049482264 -0.12853636 -0.5331744 -0.3014357
0.46965286 -0.082378194 -0.033754867 -0.08725166 0.28633252 0.17543231 0.16037944 -1.2051587
0.09955902 0.030387718 -0.05242273 0.5709993 -0.113135055 -0.03917544 -0.035316005 0.18179229
0.1051655 0.014181616 0.72842956 -0.3861803 0.20434038 -0.053182214 -0.028008616 -0.027920375
0.084252305 -0.04446515 -0.3364272 0.30685344 0.012190266 -0.21827552 0.031071959 0.027427988
0.05948009 1.6689973 -0.5780849 -0.043025095 0.11657274 0.055580813 0.08382395 -0.9704404
-0.114294775 -0.11166867 -0.047837187 -0.37165412 0.3088462 0.09184296 0.116839565 0.0009982396
0.009677733 -0.102096476 0.21520367 0.23546752 -0.13252825 0.00432332 0.043977953 0.11963558
-0.21333615 -0.19626336 -0.062286805 0.8275551 0.07394783 0.14237183 -0.42774817 -0.093215905
0.10655153 0.09543237 0.008131632 0.2440738 0.6687824 0.016994495 0.027027283 -0.21824911
-0.10928141 0.022322997 -0.25684384 -0.024743915 -0.0010798455 -0.3372939 0.13217832 0.054275643
1.0058148 0.04237574 -0.0674296 -0.056649007 -0.17869808 0.14397079 -0.051093247 -0.10514199
0.052624363 -0.13514535 0.22670913 0.13604376 -0.0830556 -0.31076443 -0.20446873 -0.109664306
-0.030371875 0.01833346 -0.13938937 -0.093442455 -0.11518428 0.108679205 -0.5398222 -0.09177536
0.38546672 0.5582072 1.2718486 0.07491571 -0.37737966 0.012492793 -0.27239904 -0.0723643
-0.07083273 0.57482034 -0.19166803 0.1367689 -0.09688484 -0.6151661 -0.15034342 0.038557578
0.109337494 0.15007335 0.18202956 -0.14116937 0.02495449 -0.0037601572 0.2910857 -0.055628154
-0.2232279 0.0075856657 -0.2980096 -0.027114864 -0.3554013 0.13501109 0.25029027 0.13789356
-0.032762166 -0.022996258 -0.02470369 -0.107288375 -0.6473902 0.23337618 0.09602383 -0.009710202
0.026731702 -0.16834316 -0.022278761 -1.4592015 0.07424752 -0.5242897 -0.3399721 0.05110465
-0.14737284 -0.014276906 0.026754932 0.0055775642 -0.047587898 0.12842506 0.6178171 -0.36382267
0.08017822 0.2808581 -0.12733436 -0.07470706 -0.2356931 0.26542798 0.6044194 -0.6957165
-0.099491596 0.034504157 0.07544758 -0.7469485 0.21662207 -0.13003375 -0.035855927 0.5746163
-0.7990291 0.180272 -0.04848241 -0.08347125 0.051126815 0.010140059 0.09230512 -0.0089179985
