results/sceptr/eval/trained-sceptr-caneval-6/Epoch 24/classifier-24.pth (torch, 2307 bytes, 2 tensors)

scoring_linear1.weight f4 [1, 64]
0.02735519 -0.111818634 0.102374785 -0.08072522 0.046811324 0.12756515 0.061126214 -0.00030779172
0.08961578 0.2714508 0.102544114 0.045237612 -0.013469796 0.1021176 0.017507166 0.005336478
0.084310554 -0.14425309 -0.096275374 -0.09581648 -0.10239211 -0.045171652 -0.072668135 -0.058786437
-0.032710772 -0.14997345 -0.11999053 -0.028269686 0.083909154 0.097089134 -0.1565326 0.02985255
-0.014362783 0.11538953 0.09928899 0.22387995 0.023937086 0.045986384 -0.012844248 -0.0013128814
-0.003360938 -0.024039581 -0.09309087 -0.20154044 -0.10111224 -0.08226246 -0.032568667 -0.01013658
-0.009488869 0.18443823 -0.03682194 -0.06877416 -0.12690923 0.0020433466 -0.12897982 -0.13309415
-0.14700839 0.03850093 -0.19712994 -0.1666742 0.023585424 -0.046953954 -0.002796393 0.14017385
00000000: fe17 e03c 2b01 e5bd dfa9 d13d 4453 a5bd
00000010: 3bbd 3f3d 70a0 023e 7b5f 7a3d 1b5f a1b9
00000020: 7a88 b73d 99fb 8a3e a602 d23d 134b 393d
00000030: 6bb0 5cbc 0823 d13d 306b 8f3c 9fdd ae3b
00000040: 03ab ac3d 15b7 13be 062c c5bd 6e3b c4bd
00000050: f4b2 d1bd e905 39bd 08d3 94bd 0cca 70bd
00000060: bbfb 05bd a492 19be 98bd f5bd d495 e7bc
00000070: 90d8 ab3d abd6 c63d 154a 20be 568d f43c
00000080: e151 6bbc 5951 ec3d 0758 cb3d c940 653e
00000090: b517 c43c 385c 3c3d ae70 52bc fd14 acba
000000a0: 2f43 5cbb a8ee c4bc 6da6 bebd 9e60 4ebe
000000b0: ef13 cfbd 3879 a8bd b966 05bd e613 26bc
000000c0: 3477 1bbc 60dd 3c3e 9ad2 16bd 78d9 8cbd
000000d0: 7ef4 01be abe9 053b 4913 04be d549 08be
000000e0: 5e89 16be 27b3 1d3d 6edc 49be a4ac 2abe
000000f0: 3836 c13c ca52 40bd b043 37bb bc89 0f3e

classifying_linear1.weight f4 [1, 64]
0.14015941 0.22773105 0.012877344 0.07695036 0.3166749 -0.041335486 -0.012411176 -0.23054923
-0.09581958 -0.2475097 -0.19493361 -0.27817932 -0.44769496 0.09404512 -0.17539127 -0.4011969
0.012842436 -0.043683317 -0.056362152 -0.41662228 -0.20612137 0.35644317 0.56908655 0.0021913939
0.47626838 -0.10725862 -0.15889132 -0.19685201 0.043119814 -0.53785557 0.42984837 0.023475714
0.5350314 -0.88403237 -0.24503551 -0.013708299 0.024400141 -0.386613 -0.12170133 0.47952053
0.28683904 -0.05567092 0.48309565 0.38911134 0.13221876 0.15778428 0.29968724 0.34529114
-0.31023687 -0.09340943 0.6205413 0.30932438 -0.09896972 0.1434071 -0.03943882 0.0340142
-0.26196313 0.18088813 0.10327737 0.121257305 -0.44360408 -0.33766663 -0.12538075 0.16485684
00000000: f385 0f3e 5432 693e 7ffb 523c 2698 9d3d
00000010: 3623 a23e 664f 29bd 3f58 4bbc 1915 6cbe
00000020: 0e3d c4bd 2f73 7dbe ad9c 47be 856d 8ebe
00000030: 4638 e5be ba9a c03d c599 33be ae69 cdbe
00000040: 1569 523c 47ed 32bd 00dc 66bd 844f d5be
00000050: 7b11 53be b87f b63e a8af 113f 7d9d 0f3b
00000060: 73d9 f33e 68aa dbbd 68b4 22be 9393 49be
00000070: 679e 303d e7b0 09bf 1615 dc3e 2450 c03c
00000080: d1f7 083f f24f 62bf 97ea 7abe c698 60bc
00000090: cee2 c73c 24f2 c5be 8c3e f9bd b783 f53e
000000a0: 91dc 923e 3107 64bd 5058 f73e 9a39 c73e
000000b0: 5b64 073e 3492 213e 9b70 993e 00ca b03e
000000c0: 5ed7 9ebe 714d bfbd cbdb 1e3f c45f 9e3e
000000d0: a3b0 cabd 50d9 123e 9a8a 21bd 7952 0b3d
000000e0: 0820 86be bd3a 393e 1683 d33d c055 f83d
000000f0: 1320 e3be a4e2 acbe d063 00be 3bd0 283e
