results/tcr-bert/trained-unidirectional-1/Epoch 45/classifier-45.pth (torch, 8003 bytes, 2 tensors)

scoring_linear1.weight f4 [1, 768]
00000000: c58b c53c a1db 80bc ec1b 9cbc f9b5 d8bc
00000010: d74f 81bc 89cc 3c3d 8e6e 07be 4bc2 0abe
00000020: 5281 b93c 1382 2e3b 0794 773c 6633 6a3c
00000030: 5638 0a3d 5de6 abbd d8a2 66bd ee2d 9c3d
00000040: 8a9b 593d 0787 29bd ef44 82bd 3f0b 8fbd
00000050: ee3b 803b 9987 61bd d37e a83c 3424 c8bb
00000060: e4dc 9c3c 144b 1ebd b70f ebbc 41c4 25bc
00000070: 3acd d7bd f410 163d 1e2f 30bc 86d4 04bd
00000080: 1dd6 0cbe 16b1 d5bd 6aa8 873c 40e2 90bc
00000090: 12c3 cbbd 7351 473d 8674 c0bd 1eac af3d
000000a0: af56 01bd 8ff9 c03d 27fb 21bc 2209 923c
000000b0: 22b4 3a3d 11d6 b2bc ed28 9fbc b12c 50bd
000000c0: 8aef 6e3d ec13 d93c 0401 47bc 5f0f 043c
000000d0: e2a3 1ebc 7989 91bd 65ea 803c 1474 d73d
000000e0: 69ed b63c 0cb6 d93d 15b6 77bd a9f2 ae3c
000000f0: b31f e338 5bbc 61bd d892 0ebd a070 9c3d
00000100: cf6a 193d 4e5d bdbd 6192 a73c ba20 73bc
00000110: 6e16 f93d 40b0 2dbd 9623 9d3c 462f 4cbd
00000120: 7727 b73d 4c1c 1abe 23de 393d 5da5 873c
00000130: 8a45 04be c24b 6ebc d054 403c 1bd2 f33c
00000140: 19ad 963d de29 aa3d dce1 0e3e d30c 1fbd
00000150: 1303 b03c 05f9 e63c 33d4 cd3d fb7d e4bc
00000160: 7970 bd3d 7648 9a3c fbd0 0c3d 6cac 953c
00000170: 515a 72bd d889 bc3c d0f0 70bd 8fc9 d8bc
00000180: 9103 8c3c a54c 1a3d f944 76bd f410 45bd
00000190: 39bc 27bd 7d58 2c3d b210 2abd 1f50 dbbc
000001a0: 1b4b d1bc f007 81bc 639e 5c3d c166 8d3d
000001b0: e3c4 a83c 965a 483d 13a6 443d 15a8 d9bd
000001c0: 0d3b b3bb 5c40 b4bb 02ea 863d 80fb 9abc
000001d0: 032e 4b3d 22da babd 653e af3c 15a3 bcbc
000001e0: bd17 a43c 61a5 8dbb 5d44 f2bb 93f1 2f3d
000001f0: 655d 703d 7b80 83bd 8aa2 033d 03bb bf3b
00000200: c1f4 03bd 5580 933d 3dc6 54bd c1a9 e5bb
00000210: a1a9 73bd 2eae 0dbe b9a7 e3bb 74b5 1abd
00000220: 4f2c 5f3d 6ea5 69bd 7537 9e3d c28c fdbb
00000230: 69f1 8d3c 7bdb e3bc 539d 61bc db71 97bc
00000240: fa7b 023b 9d53 de3c f95e 193d 5d3a f1bc
00000250: 7ff2 e73c bd1e 063d a9bd a53d c20c f4ba
00000260: 9813 babb 8268 e5bd 1112 8b3c 404c 65bc
00000270: 8028 f23b 1c73 073d 8a31 88bd 241c 11bc
00000280: fc97 9ebd 638c cdbc 837d 2cbd 22dc e8bd
00000290: e9de 0e3d e086 29bc f4e4 febc 388b 76bd
000002a0: dc86 643b 4f9f 273c 08a4 0bbd b5d3 efbc
000002b0: 6be2 5ebd 5891 9a3c 2139 7dbc bae9 3c3d
000002c0: 7b4a b2bc 41d9 94bc a509 a5bb 109c e13c
000002d0: 0032 f43c 4e1f 6b3d a449 3e3d 17e9 873c
000002e0: 756d 4ebc c5c4 a4bc f937 10bd 1360 aa3d
000002f0: 4e19 adbc b092 fa3c 3a21 afbd 5d50 e33c
00000300: 8071 af3c f456 8c3d 898b 3c3c 567e 2e3d
00000310: baf0 593d 0b72 46bd 1e06 63bd 3825 463d
00000320: 9596 19bc e41a 45bd b124 93bd 33fd b23d
00000330: 86f5 afbc 8ae0 06bd eda2 203c d1d0 4d3d
00000340: 1437 093c 7046 e63c a9eb 2dbc f02c a3bc
00000350: 2301 b53c a087 89bb 0fbe 1abc 8e3a d0bd
00000360: 08a0 bd3c 2dbd 893c 70b4 213d d8ba 02bd
00000370: f0e0 e53b e826 a7bc 41f1 92bc 6d0e 103d
00000380: 562a 063c 9962 01b9 2289 fc3d fd47 96bd
00000390: 148f dfbc 3214 a6bd 7f30 81ba 6565 76bc
000003a0: dba9 bc3c 1649 e8bc a295 54bc 2a88 153e
000003b0: 73cc be3c c2af 1abd 9a0f 463d 04a6 883b
000003c0: 417b adbd 202f 353c 296e d83c 46d6 abbd
000003d0: 9417 22bc a47f 64bd 5632 f63d 7a9c 8fbd
000003e0: 3af4 bc3d 2a42 6bbd ee62 c03c f623 97bd
000003f0: 078e 043e 8b17 2d3d a4e4 a53c d765 b73d
0.024114499 -0.015729727 -0.019056283 -0.026453959 -0.01578514 0.046093497 -0.13225767 -0.1355068
0.022644673 0.0026627823 0.015110976 0.014294481 0.033745132 -0.08393548 -0.056307644 0.07625948
0.05312685 -0.041388538 -0.06360804 -0.06984567 0.003913394 -0.055060957 0.020568287 -0.0061078314
0.019148298 -0.03864582 -0.028694017 -0.010117591 -0.10537191 0.03663726 -0.010753421 -0.03242924
-0.13753553 -0.10434167 0.016559798 -0.01768601 -0.09949316 0.04866166 -0.09397225 0.085777506
-0.03157681 0.094225995 -0.00988654 0.01782662 0.045581944 -0.02183059 -0.019428695 -0.05082387
0.05833391 0.026498757 -0.012146238 0.008060305 -0.009682627 -0.07106299 0.015736768 0.10520187
0.022330003 0.10630426 -0.06047638 0.021355944 0.00010830108 -0.05511127 -0.03480801 0.07638669
0.037455376 -0.09246312 0.020455541 -0.014839346 0.12162481 -0.042404413 0.019182008 -0.04984977
0.08943074 -0.15049857 0.04537786 0.016558344 -0.12917152 -0.014544429 0.011738971 0.029763272
0.073572345 0.08308767 0.13953346 -0.03883059 0.02148584 0.028194914 0.100502394 -0.027892103
0.09249968 0.01883338 0.034378987 0.018270694 -0.059168164 0.023014948 -0.058823407 -0.026463298
0.017091544 0.03767075 -0.06012437 -0.04811187 -0.040950987 0.042076577 -0.04151983 -0.026771603
-0.025548508 -0.015750855 0.053861987 0.069043644 0.020601695 0.048914514 0.048009943 -0.10627762
-0.005469686 -0.0055008363 0.06587602 -0.018918753 0.049604427 -0.09123637 0.021392057 -0.023026982
0.02003085 -0.004322693 -0.0073934034 0.042954993 0.058682818 -0.0642099 0.03213743 0.005851151
-0.032215837 0.07202212 -0.051946867 -0.0070087616 -0.059487943 -0.13835976 -0.0069474843 -0.037770703
0.054485615 -0.05704253 0.07725421 -0.007737727 0.017327027 -0.027814617 -0.013770419 -0.018486908
0.0019910322 0.02713948 0.03744409 -0.029446775 0.028313873 0.032744158 0.080928154 -0.0018619525
-0.0056786053 -0.11201574 0.016976388 -0.01399523 0.007390082 0.03306876 -0.06650074 -0.008856807
-0.077438325 -0.025091356 -0.042111885 -0.11370112 0.034880552 -0.010347098 -0.031115033 -0.060191363
0.0034870422 0.010230853 -0.03409198 -0.029275754 -0.054415148 0.018868133 -0.015455515 0.046121337
-0.02176403 -0.018170001 -0.00503655 0.027540237 0.029808998 0.0574029 0.046456948 0.016590638
-0.012599339 -0.020113358 -0.03520963 0.08319106 -0.02113023 0.030587524 -0.08551259 0.027748281
0.021416426 0.068525225 0.011507877 0.042600952 0.05320809 -0.048448604 -0.055425756 0.04837534
-0.00937428 -0.048121348 -0.07184733 0.087397 -0.02147938 -0.03292898 0.0098044695 0.05024797
0.008374948 0.02810976 -0.010615268 -0.019918889 0.022095269 -0.004197076 -0.009444728 -0.101674184
0.023147598 0.016813839 0.03947872 -0.03191647 0.00701534 -0.020404294 -0.017937304 0.035170007
0.008188805 -0.00012339129 0.123308435 -0.073379494 -0.027289905 -0.08109321 -0.0009856372 -0.015038823
0.023030212 -0.028355163 -0.012975128 0.14602724 0.023290848 -0.037765272 0.048354723 0.004170181
-0.084707744 0.011058599 0.026419716 -0.08390479 -0.009893317 -0.05578579 0.120213196 -0.070122674
0.0922627 -0.057436146 0.023484673 -0.07379906 0.12944804 0.04225878 0.020250626 0.08954971

classifying_linear1.weight f4 [1, 768]
00000000: b968 02bd 38d6 51bd aef8 b1bb 158b d13d
00000010: 2ec7 3b3d e38b a3bc e933 4e3d 0145 2f3d
00000020: da5a 0c3e e02f 0dbd c919 d63d 55af a5bc
00000030: cfbb 4abb 268a a9bc 5b31 1b3a 0c97 93bd
00000040: c317 50bd ba92 fa3c b36c b63d a8ac 033d
00000050: 0c11 e2bd e9d4 18bd e227 373d 1961 2b3d
00000060: 2150 a53d de16 d4bc 7203 573c a5e2 023e
00000070: 244e a43a 843c 2b3d 47e8 95bd f32f 183d
00000080: edec 9f3d 159e 813d d19c 1d3d d137 96bd
00000090: a087 323d b58c 9f3d 141d 953a 8858 55bd
000000a0: 7da0 b6bc facf 653d 430a 9b3d 3272 93bc
000000b0: 96ad efbc adf4 1d3b aa0e 64bc 1c27 67bc
000000c0: d61c 2bbe 508e 10bd f8a1 ab3d dfa1 c8bc
000000d0: 850c 81bc 8378 823d 08e4 0c3d 361a 72bc
000000e0: be24 f3bd dfc6 ddbc daf1 983d ab79 a7bb
000000f0: b2da 043d cca1 18bd f100 623d 85bb de3c
00000100: 0c7f 7abc c7bd b83d 87bf ae3d 0c01 5ebd
00000110: ba2c 28bd 8baa da3c eccd db3c 1b3f 323c
00000120: f62a 163c 2786 9c3c e9d8 533b 36da 9d3d
00000130: d4f3 433d 6d93 863d c4fd 71bc e302 90bb
00000140: fd69 823c 9770 15bd 12da 7cbc 1f82 32bd
00000150: 36e2 883b fbd9 423d 0449 0fbd a531 4a3d
00000160: fc4b 2fbd a563 31bc 426a f33a 82a5 feba
00000170: 54eb bc3b 6452 16bc e33d 943d 7078 083d
00000180: c300 dc3c af11 253d 2455 893d f4b7 66bc
00000190: f655 e7bd 6d68 a0bc 4aa9 873c a6ea 65bd
000001a0: 6391 9a3d 3f1d 803d a365 6a3c 9c91 95bc
000001b0: 16d7 6bbd af4b f7bc 6123 fabd 95ca 7d3d
000001c0: 5f71 72bc 58aa 683c 301a 0bbe 1af2 293c
000001d0: c8ef cfbc 2106 3d3c e292 813c f4fe a33d
000001e0: 14e3 913b 1766 73bd e25c a23c ace3 643d
000001f0: d871 88bd dabc 16bd 8f5e b3bd b7dc 613d
00000200: b2bb b93c 73ba fbbd 8567 90bb 811a ac3d
00000210: d1e0 a63d 405b 233d f05e 003d 2312 03bc
00000220: cd87 ae3b e7fc f93a 6be6 35bd 874f 02bd
00000230: 076e d33d 863f 163d 5500 aabc d428 8ebd
00000240: 49f9 243c cfc0 133c 509c b8bd 68a4 bb3c
00000250: 2f5d 203c d60a b33c 75c1 583c 9925 16bd
00000260: 6aac 0dbc 1f7e 6a3d 49dd 10bd f35c ab3d
00000270: ce58 4fbd 0c0c 14bd f052 2bbd 62f4 c8bc
00000280: e48b 6f3d c224 d53d 4581 1cbd dff4 0cbc
00000290: cd3b d13b 8c83 b8bd 7067 6b3c 172f e43d
000002a0: 1559 d43b 3ab9 593d fe56 093d 6437 473d
000002b0: d740 b13c ed50 103d 85ad 5a3c 734a f4bd
000002c0: 8370 9c3d f2bd cbbc 1dbe d13c 0c48 39bc
000002d0: 9144 923d b1a2 5dbd 847c 6bbd 3311 433d
000002e0: 5e9f 79bd 6ca0 6e3d 16c4 eb3b 6587 123d
000002f0: 0bae 403d 0061 90bb 9d69 af3d b957 573c
00000300: 35c0 84bc a6b3 d6bd ef8d f5bb 4b99 12bc
00000310: e3cb 3a3c b77b 4a3d c90f d3ba 8682 c2bc
00000320: 92ab 093d df6f b43d 810e 41bd 7ecd b1bd
00000330: 5909 b938 f617 ecbc c2f7 ef39 bc5a b9bd
00000340: 21c0 d0bd ef00 3bbc 76f9 b8bb d422 bb3d
00000350: fbe3 a1bc eacb 233d 1ebb 10be 67b4 ab3d
00000360: 5753 a4bd 8d4c 963d b26a 0fbd e8d0 823d
00000370: c741 cabb df8a e2bd 1ac5 c7bc 25e0 62bc
00000380: 1de7 c3bc f65b 81bc bcf8 273d 0b07 723b
00000390: 523d 3b3d 92e7 b63c 748e d53d 8427 883d
000003a0: c9f9 113e 3e74 463d f5ac 6f3c 5df1 7fbd
000003b0: 777f 3abd b619 9c3b 51f8 7bbd 98ac 5a3c
000003c0: 2653 9f3c c14f e6bd 366a 86bd 47b9 9d3d
000003d0: f307 fb3c 1a4f 98bd ace6 173d bfbe 6fbb
000003e0: aa50 88bc c954 ac3d d669 39bd 619e f63b
000003f0: 3c04 02be 9cf9 613d 1210 26bd 49f9 bdbd
-0.031838153 -0.051229686 -0.0054312563 0.10231606 0.04584425 -0.019964164 0.050342474 0.042790417
0.13706532 -0.034469485 0.10454137 -0.020225206 -0.0030934697 -0.020695757 0.00059201353 -0.07206544
-0.05080391 0.030587543 0.089074515 0.03214708 -0.11038408 -0.037312422 0.04471577 0.041840646
0.08071924 -0.02588981 0.01312338 0.1278177 0.0012535495 0.04180576 -0.07319694 0.037155103
0.07808862 0.0632898 0.03847963 -0.07334865 0.043586373 0.077905096 0.0011376464 -0.052086383
-0.022293324 0.056106545 0.07570317 -0.017998789 -0.029257577 0.0024102137 -0.013919512 -0.0141084455
-0.16710219 -0.03529197 0.083805025 -0.024491249 -0.01575304 0.06370642 0.034397155 -0.014776757
-0.118722424 -0.027072368 0.074680045 -0.0051109395 0.032435127 -0.037263677 0.05517668 0.027189026
-0.015289079 0.09020572 0.08532625 -0.054200217 -0.04105828 0.02669265 0.02683159 0.010879303
0.009165516 0.019106938 0.0032325333 0.07707636 0.047839954 0.06571088 -0.014769975 -0.0043948754
0.01591968 -0.036484327 -0.015432851 -0.043581124 0.004177357 0.047571164 -0.034981743 0.04936375
-0.042797074 -0.01082698 0.0018571096 -0.0019427987 0.005765358 -0.009174917 0.072383665 0.033317983
0.026855832 0.040300068 0.067056924 -0.014081944 -0.112956926 -0.019581044 0.016560216 -0.05613198
0.075472616 0.06255578 0.014306459 -0.018257909 -0.05757817 -0.030187456 -0.12213779 0.061960775
-0.014797538 0.014200769 -0.13584208 0.010372663 -0.025382891 0.011537106 0.01581711 0.08007613
0.0044521187 -0.059423532 0.01981968 0.055881187 -0.06662339 -0.036801197 -0.0875827 0.05514213
0.022672508 -0.12291422 -0.0044068717 0.08403493 0.08148349 0.039881945 0.03134054 -0.00799993
0.0053262473 0.0019072563 -0.044409197 -0.031814124 0.103237204 0.036681674 -0.020752111 -0.06941381
0.0100692 0.009018137 -0.09014189 0.022905543 0.009787842 0.021855753 0.0132297175 -0.03665695
-0.008647064 0.057249185 -0.035367284 0.08367338 -0.0506218 -0.0361443 -0.041827142 -0.024530593
0.05848302 0.104074016 -0.03820922 -0.008603304 0.0063853026 -0.090094656 0.014367923 0.11141794
0.006480346 0.05315516 0.033530228 0.04863681 0.021637363 0.035233427 0.013347034 -0.119282626
0.076386474 -0.024870846 0.025603348 -0.011308681 0.07141984 -0.054110233 -0.057491794 0.047623824
-0.060943 0.05825846 0.007195006 0.035773654 0.04704098 -0.0044060946 0.08565066 0.013143473
-0.016204933 -0.10483484 -0.0074937264 -0.008947681 0.011401149 0.04943439 -0.0016102727 -0.023743879
0.033610888 0.088104 -0.047132973 -0.08681773 8.8232286e-05 -0.02882002 0.00045770226 -0.09050509
-0.10192896 -0.011413797 -0.0056449724 0.09137502 -0.01976203 0.03998939 -0.1413388 0.083840184
-0.08023708 0.0733882 -0.035013862 0.06387502 -0.006172392 -0.11061644 -0.024385978 -0.0138473855
-0.023913914 -0.01579092 0.041008696 0.0036930467 0.045712776 0.022327218 0.104275614 0.06648162
0.14255442 0.0484507 0.0146286385 -0.06248604 -0.045531716 0.004763807 -0.06151611 0.013346814
0.019448828 -0.112456806 -0.06563227 0.077013545 0.030643439 -0.074369624 0.03708522 -0.00365822
-0.016640026 0.08414609 -0.04526695 0.0075262045 -0.12696928 0.055169687 -0.04054267 -0.09276063
