results/sceptr/trained-sceptr-caneval-3/Epoch 35/classifier-35.pth (torch, 2307 bytes, 2 tensors)

scoring_linear1.weight f4 [1, 64]
-0.024648463 -0.17683657 0.07971341 -0.14174204 0.115516074 -0.03332826 -0.06693299 0.067639634
-0.0075148568 -0.1282017 0.00047690145 -0.07083241 -0.037973914 0.098685354 -0.01376865 -0.15202287
-0.23416409 -0.034157485 0.006158217 -0.06428814 -0.098039955 -0.108886205 0.1009472 0.0522032
-0.036488112 0.0814756 -0.068314746 0.11741829 -0.19535059 -0.015497007 0.10877314 0.018308153
-0.10909867 -0.27638432 -0.003688771 -0.34846222 -0.08050687 0.17030238 0.04616821 0.0130678965
-0.043114286 -0.0063692345 -0.014960353 0.21330698 -0.054563954 -0.12068695 0.09766599 -0.060949847
-0.02210632 -0.053016547 0.18120126 -0.05644928 -0.09547368 0.07873169 -0.0041282405 0.101624556
-0.011066554 0.023943992 0.17511559 0.24159127 0.17355962 0.10301547 -0.03559051 -0.10887862
00000000: 93eb c9bc a514 35be c940 a33d d324 11be
00000010: b193 ec3d 3783 08bd 2a14 89bd a686 8a3d
00000020: 303f f6bb 4e47 03be a108 fa39 9510 91bd
00000030: 898a 1bbd 8c1b ca3d e795 61bc e2ab 1bbe
00000040: b6c8 6fbe b8e8 0bbd deca c93b 80a9 83bd
00000050: 2cc9 c8bd bbff debd 68bd ce3d 06d3 553d
00000060: 8f74 15bd aedc a63d 9ae8 8bbd 0079 f03d
00000070: fc09 48be 29e7 7dbc 74c4 de3d fbfa 953c
00000080: 206f dfbd 3f82 8dbe 4fbf 71bb a469 b2be
00000090: c9e0 a4bd bf63 2e3e e11a 3d3d bb1a 563c
000000a0: 9b98 30bd 03b5 d0bb 451c 75bc 256d 5a3e
000000b0: 747e 5fbd b82a f7bd 1b05 c83d 8ca6 79bd
000000c0: 5018 b5bc e127 59bd d38c 393e 5c37 67bd
000000d0: b487 c3bd 153e a13d 3146 87bb 8920 d03d
000000e0: 7e50 35bc 3126 c43c 8051 333e b463 773e
000000f0: 9db9 313e c6f9 d23d 5bc7 11bd c1fb debd

classifying_linear1.weight f4 [1, 64]
-0.6623406 0.33826315 -0.23223406 -0.013222232 0.7977277 0.34060377 -0.5784821 0.13202207
0.030004099 0.13889226 -0.5460481 -0.32526454 0.43647334 0.573347 -0.028698377 0.0787551
-0.13365933 0.2155662 -0.34342602 -0.3975474 -0.79115146 -0.3988994 0.96123743 -1.0466212
0.21809141 -0.6684328 0.09875842 0.19427326 0.0711658 -0.0019924608 0.1307017 0.7443552
0.26537177 0.037354164 -0.7663911 0.06972796 0.5365056 -0.2735109 -0.0072204713 -0.37503052
-0.43510008 -0.59947944 -0.6828972 -0.12787461 0.3757811 -0.4170512 1.006896 -0.094014265
0.22164886 0.028144654 0.89790916 0.8412599 -0.93021595 -0.13371909 0.6791632 -0.761697
-0.52561307 0.8936642 -0.44876754 -0.08521218 -0.09046049 -0.5369435 0.75041336 -0.5875049
00000000: 278f 29bf d430 ad3e c4ce 6dbe 10a2 58bc
00000010: e237 4c3f 9e63 ae3e 6717 14bf cb30 073e
00000020: 28cb f53c c639 0e3e cfc9 0bbf 1389 a6be
00000030: 6f79 df3e dec6 123f dc18 ebbc 5b4a a13d
00000040: fedd 08be 63bd 5c3e 89d5 afbe 558b cbbe
00000050: e788 4abf 8b3c ccbe a813 763f aff7 85bf
00000060: 5b53 5f3e 691e 2bbf db41 ca3d 92ef 463e
00000070: 60bf 913d f293 02bb abd6 053e 108e 3e3f
00000080: cfde 873e ae00 193d 3532 44bf 88cd 8e3d
00000090: 6e58 093f 9f09 8cbe b499 ecbb 0004 c0be
000000a0: 70c5 debe 7c77 19bf 5ad2 2ebf 90f1 02be
000000b0: 6166 c03e bc87 d5be f8e1 803f 8d8a c0bd
000000c0: ebf7 623e 9e8f e63c 60dd 653f cf5c 573f
000000d0: a222 6ebf a8ed 08be a4dd 2d3f 93fe 42bf
000000e0: 948e 06bf 2dc7 643f dcc4 e5be b983 aebd
000000f0: 5943 b9bd 2175 09bf 171b 403f b966 16bf
