good-results/symbolic/trained-kidera-1538/Epoch 1/classifier-1.pth (torch, 8447 bytes, 4 tensors)

upscale.weight f4 [119, 10]
000000 d1 3c 85 3e ca c4 2f 3d f5 f3 84 3d e3 44 8f be
       0.26022962 0.042912282 0.064918436 -0.27982244
000010 cc 92 4b be 78 ad 42 be f0 ee 88 3e 66 5c 4a be
       -0.19880217 -0.19011486 0.26744795 -0.1976181
000020 33 c4 4d 3d 17 3a 16 be 7e 99 45 3e 30 57 47 3d
       0.05023594 -0.14670597 0.19296834 0.048667133
000030 bc b6 66 3e 36 52 93 bd 0a 65 61 bb 5a 29 69 3e
       0.22530645 -0.07193415 -0.00343925 0.2276968
000040 8f 08 8d be 54 da 1d 3e e3 6c 46 3e d6 81 73 be
       -0.27545592 0.15415317 0.19377474 -0.23779997
000050 a5 9a 9b 3d 0b 37 9e 3e 42 af f2 3d 3e b1 d5 bc
       0.075978555 0.3090137 0.11849834 -0.026085492
000060 da 74 8e 3e fd a9 44 3e 1a 56 9d 3e a2 0d 97 be
       0.27823526 0.1920547 0.30729753 -0.2950259
000070 ab da 2a 3e 6e 3c 8c 3e 65 01 74 3e 70 be 7a be
       0.16684978 0.27389854 0.23828657 -0.24486709
000080 f4 ba 46 3d 67 bf ef 3b d8 b0 38 3e 31 e2 85 3e
       0.048518136 0.007316518 0.1803621 0.26149133
000090 69 99 2b be bf 3d 74 3d 79 91 f3 bd 66 ef 81 be
       -0.1675774 0.0596292 -0.11892981 -0.2537796
0000a0 e3 81 72 3e 44 d6 81 3e dd d9 11 3e 52 2c 20 be
       0.2368236 0.25358784 0.14243264 -0.15641907
0000b0 74 a2 51 3d d1 7b 33 3e 42 61 4f be db 1f 73 3e
       0.051180318 0.17527701 -0.20251945 0.2374262
0000c0 de 86 f8 3d 72 4b c3 3d 35 c8 4a 3e cf e7 76 be
       0.12135099 0.095358744 0.19802935 -0.24111865
0000d0 4b f0 dc 3d 77 e2 64 3e fd 82 4d 3d 0e e6 e8 3d
       0.1078802 0.22352014 0.05017375 0.113720044
0000e0 fb 52 5b be 05 bb b4 3d a2 0c f7 3d 4d 65 42 ba
       -0.21418373 0.08824734 0.120629564 -0.00074156077
0000f0 58 dd c3 bd 9a 71 a0 be f5 e9 02 3d d8 c7 60 3e
       -0.09563702 -0.3133667 0.0319614 0.21951234
000100 0f 0b 41 be 6a ed 52 3e 60 1e ee 3d d7 ea 74 be
       -0.18851875 0.20598379 0.11626887 -0.2391771
000110 a0 41 88 be c8 e2 d3 3d 82 05 02 be 52 c7 29 bd
       -0.26612568 0.103459895 -0.12697414 -0.041449852
000120 cf 42 04 3d 8a d3 0c 3e 7a 52 67 3e d3 ae 23 3e
       0.032290276 0.13752571 0.22590056 0.15984659
000130 84 c9 95 be 9b 24 4e be 22 bd 9d be 62 39 2a 3d
       -0.29255307 -0.20131151 -0.3080836 0.04155863
000140 4c dd 8d be f3 ea 80 be b8 ea 2a 3e 7a 3f 3e 3d
       -0.277079 -0.25179252 0.166911 0.046447255
000150 2f fc 6e 3d 0b b4 64 be fd e9 06 bd bf 8e dc bc
       0.05834597 -0.22334306 -0.032937992 -0.026923535
000160 43 28 97 3d 67 a8 ae 3d ef df b1 bb df 0d 24 be
       0.07380726 0.08528214 -0.0054283063 -0.16020916
000170 3a fc 11 3e ed b5 a1 bc 73 99 80 3e 58 e6 1c 3b
       0.14256373 -0.01974007 0.25117072 0.0023941007
000180 db 33 92 3e c9 36 10 bd b3 ed 2b bd e2 7c 38 3e
       0.28555188 -0.035208497 -0.041974735 0.18016389
000190 7a c1 18 be 72 3e 97 3e c2 17 0b 3e cb ae 39 3e
       -0.14917555 0.2953983 0.13583282 0.18133084
0001a0 d9 3f 13 be c7 fb 59 be a9 f2 79 be 36 c4 22 be
       -0.14379825 -0.21287452 -0.24408974 -0.15895161
0001b0 4e b0 5b be fc ac 9f 3c 8d de b4 3c b1 df 18 be
       -0.21453974 0.019491665 0.022078777 -0.14929081
0001c0 f3 11 f1 3d 60 22 8c 3e 51 e6 b2 3d 68 25 76 bd
       0.11771002 0.27369976 0.087353356 -0.060094267
0001d0 0d c2 cd 3d b5 2c 7f 3e b0 ef 18 3e 92 b7 84 3e
       0.10046778 0.24919398 0.14935184 0.25921303
0001e0 1e c2 d2 bd aa 05 8a 3e a6 a7 d0 bc f1 36 8a be
       -0.10290931 0.26957446 -0.025470566 -0.26995042
0001f0 c2 69 b1 3d 91 a6 0f be 57 7f 6f bd 63 57 75 3d
       0.0866275 -0.14028384 -0.05847105 0.05989779
000200 99 b4 6c be 09 e0 d9 3d 1c 1f 27 be df 8c 0b bd
       -0.23115768 0.106384344 -0.16320461 -0.034069892
000210 f1 65 1f be 9b 3b 23 be ed 79 8d 3d b5 61 91 3e
       -0.15566231 -0.15940706 0.06908021 0.28394857
000220 20 c7 6f 3e 50 d3 38 3e 60 59 4d be d8 3b b8 bd
       0.23415804 0.1804936 -0.20053625 -0.08995789
000230 9d c7 79 3d 65 bf 88 3e 0f 3d 76 be d8 c5 1c be
       0.06098138 0.26708522 -0.2404673 -0.15309846
000240 c1 67 2c 3e 3f 13 fc bd 36 bc b3 3b 5c fc b1 3d
       0.16836454 -0.123083584 0.005485083 0.08690712
000250 93 6b ad 3d 05 43 88 3e 54 78 0d be 04 81 e6 bd
       0.08467784 0.26613632 -0.13815433 -0.112550765
000260 77 b8 a1 be d1 b3 7f 3d dd 67 9e bd 58 a5 e7 bd
       -0.31586048 0.062427346 -0.07734654 -0.11310834
000270 8f 3d 1c 3e dc 60 97 3e 52 c7 3b be 32 36 38 3e
       0.15257858 0.29566085 -0.18337753 0.17989424
000280 7b 53 0d 3e 3f 79 6d be 45 a3 c7 3d 85 98 8d bd
       0.13801377 -0.23190783 0.09747938 -0.069138564
000290 72 a6 fe 3d 55 77 53 3e 67 fb a2 bd 91 3e bd bc
       0.12434091 0.2065099 -0.079581074 -0.023101123
0002a0 07 47 5c bd b8 bc 05 3e a4 bf 93 3e 44 c4 75 be
       -0.053778674 0.13060272 0.28857148 -0.2400065
0002b0 19 f6 9c bd 58 b6 7f be 58 37 7b be 5e 2d 18 3e
       -0.07664127 -0.24971902 -0.2453283 0.14861056
0002c0 d5 a0 72 bc 15 94 9d 3e 3e 8a 22 be a4 86 70 3e
       -0.014808853 0.3077704 -0.15873048 0.23488861
0002d0 3c cc 21 3e 07 5e 2f 3e ff da 1c bd b5 61 8f 3e
       0.15800565 0.17125712 -0.03829479 0.28004232
0002e0 69 04 72 3e f6 c6 ad bd de c5 b1 bd 96 5c 6d bd
       0.23634495 -0.084852144 -0.08680318 -0.057949625
0002f0 03 54 3b be fe 64 f3 bd 5e e7 6d be 72 41 95 3c
       -0.18293767 -0.11884497 -0.23232791 0.018219683
000300 f3 7e 4a 3e 81 a3 4c 3e 44 ff 6b 3d fa 52 af 3d
       0.1977499 0.19984247 0.057616487 0.085607484
000310 e6 06 9e 3d 29 52 12 3d e7 5c e4 bd fd 00 7c be
       0.077161595 0.035722885 -0.11150532 -0.24609752
000320 e7 4c 49 be 30 42 38 3e 8a 8a 97 3e 92 25 20 3e
       -0.19658242 0.17993999 0.29597884 0.15639332
000330 3a 49 7e 3e da e0 c0 3c e3 20 4f 3e d5 04 96 3e
       0.24832621 0.023544718 0.20227389 0.29300562
000340 f5 b7 89 bd 82 6e 7d 3e 33 57 11 be 83 c4 3a 3d
       -0.0672454 0.24749187 -0.1419342 0.045597564
000350 f5 f9 ed bd 3b f1 6f 3d e6 a6 de 3d b5 30 2c be
       -0.11619941 0.058579665 0.10871677 -0.16815455
000360 ad 73 80 3a 8c bc 45 bd f1 03 4a bc e4 d4 35 3e
       0.0009800099 -0.048275515 -0.012330041 0.17756993
000370 81 07 d5 3d 91 6b 28 3e 78 de 3f be 91 cc 94 3e
       0.10401822 0.16447283 -0.18737209 0.29062322
000380 93 8b a9 bc 56 40 2e be 63 8a 08 3e f1 a5 88 3e
       -0.020696437 -0.1701673 0.1333404 0.26689103
000390 1e ca 41 be a7 58 5e 3e 57 e3 50 be e3 e6 9b be
       -0.18924758 0.21713506 -0.20399223 -0.3044959
0003a0 de a9 56 3e 16 32 2a 3e 26 7f eb 3d 3f 5c 9c be
       0.20963237 0.16620669 0.11498861 -0.30539128
0003b0 96 08 8c bc 6d 02 3d 3e 55 64 11 3e bd a1 36 be
       -0.017093938 0.18457957 0.1419843 -0.17835136
0003c0 7a 7e 30 3e de 53 11 bd a1 cf f5 3c ef 34 a0 be
       0.17235747 -0.035480373 0.030006232 -0.31290385
0003d0 91 26 9e 3e cf 92 43 3e ff 44 b8 bc 6b a6 1a 3e
       0.308888 0.19098972 -0.022493837 0.15102546
0003e0 eb 83 a8 bd cb bf cb 3a 36 c4 e3 3c 93 42 8d 3e
       -0.08228286 0.001554483 0.027803522 0.27589855
0003f0 e2 4d 46 be dc fe 67 be d4 19 9c 3e e1 3f 77 be
       -0.19365647 -0.22655815 0.30488455 -0.24145462

upscale.bias f4 [119]
000000 3c b1 d5 3d 63 66 52 bd ac 95 52 3e c2 23 a7 bd
       0.104341954 -0.051367175 0.20564908 -0.08161117
000010 36 07 59 3e 4a 54 58 3e 0b cd 94 be af 92 09 be
       0.21194157 0.21125904 -0.29062685 -0.13434862
000020 e6 5f 9d 3d 11 0e 8d be 6b 4e 16 be a4 5d f2 bc
       0.07684307 -0.27549794 -0.14678352 -0.029585667
000030 6e e5 c8 3c 94 94 89 be 4f d6 c6 3b fa e5 27 be
       0.024523463 -0.2687117 0.006068028 -0.16396323
000040 22 18 42 3e 8b 04 e5 3d 7c f6 86 bd 8c 65 48 3e
       0.18954518 0.11182507 -0.06589982 0.19569987
000050 4f 28 7d be 17 89 12 be 19 fd 87 3d a1 4d 91 3d
       -0.24722408 -0.14310108 0.066400714 0.07094885
000060 5c 52 80 3c 70 ec b2 3c 83 44 58 bc 02 5e 8c 3e
       0.015664272 0.021841258 -0.013199928 0.27415472
000070 ce ae 84 be b3 22 de 3d b5 f3 7c bd 72 4c 0a 3d
       -0.25914615 0.10846462 -0.061755855 0.03376431
000080 c8 51 08 be 0a db 14 3e 37 88 67 3e 3e e1 ab bd
       -0.13312447 0.14536682 0.22610556 -0.08392571
000090 68 6d 92 be 7d bf 9d 3d 9e fb 25 be b5 94 87 3e
       -0.28599095 0.07702539 -0.16209266 0.26480642
0000a0 eb e6 92 bd 10 80 89 be 4a b7 7a be b8 bb 22 be
       -0.0717295 -0.26855516 -0.24483982 -0.15891922
0000b0 53 c7 0f be a7 c2 17 bb 88 6e 28 be 89 f2 80 be
       -0.1404088 -0.0023156793 -0.16448414 -0.2518504
0000c0 f7 6a 66 3c 65 7d 6b 3e ec 59 4e 3e ca d8 83 3e
       0.014063588 0.22997053 0.2015149 0.25751334
0000d0 9f f4 59 3e 31 26 8e 3e 96 e5 18 bd 71 83 2a 3e
       0.21284722 0.27763513 -0.037328325 0.16651703
0000e0 b6 82 fc 3c b2 5e 29 3c fd 77 df bd 39 88 9a be
       0.030824047 0.0103375185 -0.10911558 -0.30182055
0000f0 54 2c d1 bc 5c 3a 75 bd b8 7c 58 3e 8e 88 8e 3e
       -0.025533833 -0.05987011 0.21141326 0.27838558
000100 f3 e7 81 be 05 e6 8a 3e a8 36 60 3e 60 fb 2c be
       -0.25372276 0.27128616 0.2189585 -0.16892767
000110 4a 4e 49 be eb ea 23 bd e7 14 28 be 43 29 da 3d
       -0.19658771 -0.040018957 -0.16414224 0.10652401
000120 6d 37 e9 bd 92 e9 89 3e 97 b9 08 3e 2a cc 9e be
       -0.11387525 0.26936013 0.13352047 -0.3101514
000130 77 97 11 3e bd 50 05 3d ef 98 01 3e 6a f7 33 be
       0.14217936 0.0325477 0.12655996 -0.1757485
000140 f7 7e 4c 3e 96 6b 14 3e e0 c3 d9 3d 51 d9 91 3e
       0.19970308 0.14494166 0.10633063 0.28486112
000150 03 69 80 be 21 23 a1 3c c1 0c f7 bd ce d8 3f bd
       -0.25080118 0.019670071 -0.120629795 -0.04683762
000160 3d 86 5f be 93 31 90 3e d0 f1 d1 3c 5a c0 28 be
       -0.21828552 0.28162822 0.025628 -0.16479626
000170 32 b9 00 3e 6b a3 26 3e 58 95 9e be 99 9f 03 3e
       0.12570646 0.16273277 -0.30973315 0.1285385
000180 4a c5 98 3e 57 71 59 be 72 d7 82 be 3c 22 88 3e
       0.2983802 -0.21234642 -0.25554997 0.2658862
000190 5b 1d 24 3e 5d b6 0e 3e a8 73 47 be 76 fc d7 bd
       0.16026823 0.13936754 -0.19477713 -0.105462
0001a0 d6 57 9b 3e 61 8c 82 be 0a 0a 08 3e 27 3b 09 be
       0.3034045 -0.25497726 0.1328508 -0.13401471
0001b0 90 f4 92 bd c8 46 9d be e7 cc 75 bd bb a1 93 be
       -0.07175553 -0.30718064 -0.060009863 -0.28834328
0001c0 64 4b 11 bd dc 88 59 3e 0c f3 00 3d 67 d4 5e 3e
       -0.03547229 0.21243614 0.031481788 0.21760713
0001d0 5e 3b 11 3e 85 e7 4d bd f5 57 99 be
       0.14182803 -0.050269622 -0.29949918

scoring_linear1.weight f4 [1, 119]
000000 21 bf 91 bc d5 f2 46 3d 98 b1 f8 bc 09 23 8e bd
       -0.017791333 0.048571426 -0.03035812 -0.06940276
000010 0c fd 9d 3c bb b6 b2 bd 3d e9 3d bd e5 6c 0a bd
       0.019285701 -0.08726259 -0.04636501 -0.033795256
000020 d5 1b b0 3d 94 69 d8 3c 6c 93 4b bd 0b 80 99 3c
       0.085990585 0.026417531 -0.04970114 0.018737813
000030 db cf f0 b9 f8 a3 9f 3d 27 da c4 bd 1a 7d 84 3d
       -0.00045931232 0.077949464 -0.09611922 0.06469174
000040 16 c6 27 3d 1d 42 0f 3d 85 f9 c0 3d 1b e9 ba bc
       0.040960394 0.03497516 0.09422592 -0.022816231
000050 0d 45 3d bd e3 d0 85 bc a6 fe 7a bd b4 cb 48 bd
       -0.04620843 -0.016334957 -0.061278008 -0.04902239
000060 67 28 61 3c aa 6b cd bc 70 49 e0 3d c6 53 f0 3c
       0.013742543 -0.025075752 0.10951507 0.029336821
000070 61 4b d6 bd fe 6f 69 3d e3 a6 e4 bc 3b d0 33 bd
       -0.10463596 0.05699157 -0.027911609 -0.043899756
000080 87 47 49 3d ae 15 96 3d 6f b0 69 3c f7 36 b3 bd
       0.04914048 0.07328354 0.014263256 -0.08750718
000090 4f 5c 1b ba b1 fd b0 bc 95 7b 8e bd 48 39 ad bd
       -0.0005926536 -0.021605344 -0.06957165 -0.08458191
0000a0 3b ac 16 ba 37 ad 59 bd ad ec 47 3c cc 07 8c bd
       -0.000574771 -0.053143706 0.012202424 -0.06837425
0000b0 8c 28 1d 3d cc e2 64 bd 76 e9 be bd d1 19 1e 3d
       0.038368747 -0.055880353 -0.09321873 0.03859884
0000c0 80 0d ae bd 7d 7d 7b bd 12 9a 23 3c b5 32 1f bd
       -0.08498669 -0.06139897 0.009985464 -0.038866717
0000d0 f0 17 ba 3d e1 e6 14 bb 7e bb 01 3d 53 4c bb 3d
       0.09086597 -0.0022720622 0.031672947 0.09145417
0000e0 09 8d 5f bd 70 ab a5 3d 6b 99 51 3d 20 c0 29 3d
       -0.05457786 0.0808934 0.0511717 0.04144299
0000f0 51 c5 ef ba 90 3e 25 bd 1c 04 c5 bd 3a 96 6d 3d
       -0.0018293058 -0.040342867 -0.096199244 0.058004595
000100 95 47 94 bd 82 d3 8c 3d 09 30 98 3d cc 42 c5 3d
       -0.07240216 0.068762794 0.07431037 0.09631881
000110 cf 05 82 3d b7 17 c5 3d 52 01 90 bd 25 c5 a5 3b
       0.06348764 0.09623664 -0.07031502 0.005058902
000120 a4 ce ad bc 8b 40 0e 3d d6 5f a2 3d 87 ca a2 3d
       -0.021216698 0.03472952 0.079284355 0.07948785
000130 c7 2d 05 3d d0 90 b2 3d 18 dd a4 3d 2a 6e 92 bd
       0.03251436 0.08719027 0.08049983 -0.071499184
000140 ff 3c 75 bc d7 0c 51 3d fb 5c 5f bd 1d d7 82 3d
       -0.014968156 0.051037636 -0.054532032 0.06388686
000150 39 f9 65 3d e3 9e 2f bb 1f ea 59 bd 09 af 6b 3d
       0.05614588 -0.0026797585 -0.05320179 0.057539973
000160 5f 9d 2b bd e8 7f b8 bd 70 51 89 3d fd 1e e5 bc
       -0.041898128 -0.09008771 0.06704986 -0.027968878
000170 cb 1c 8e bd 0e 4e 92 3d f3 55 60 bc 95 a6 4a 3d
       -0.069390856 0.07143794 -0.013692367 0.04947527
000180 79 81 8d 3d 55 fb 76 bd 8b 71 80 3d f1 04 af bd
       0.069094606 -0.060298283 0.062716566 -0.085458644
000190 9a 98 32 bd 0c b4 6c 3c bd 60 da 3d 39 0d 7e bd
       -0.043602563 0.014447223 0.106629826 -0.06202433
0001a0 d3 0d b6 bc 59 00 b7 bd 0f 81 ad bd 48 28 9c bd
       -0.022223389 -0.08935613 -0.084718816 -0.076248705
0001b0 8d aa 73 bd c9 8f 88 bd f0 fa 09 3d 8b 3c 97 bd
       -0.05948882 -0.0666805 0.03368658 -0.073845945
0001c0 35 34 b8 3d f9 38 fe ba 07 81 37 3d 91 86 f3 bc
       0.08994333 -0.0019395641 0.044800784 -0.029727252
0001d0 5f 1e 13 bd b8 18 55 bb af 19 2e 3c
       -0.035917636 -0.0032515954 0.010626241

classifying_linear1.weight f4 [1, 119]
000000 30 8c 43 bd 72 c5 92 3c b2 b6 9a 3d 13 5c 40 3d
       -0.047741115 0.017916415 0.075543776 0.04696281
000010 c1 a7 91 3d b8 dc 62 3d 3e 03 8c bd 12 cd ac 3d
       0.07112075 0.055386275 -0.06836556 0.084375516
000020 f1 7d 8f bd d4 76 94 3b 57 81 6f bd 02 f5 62 bd
       -0.07006443 0.004530767 -0.058472957 -0.05540944
000030 74 e2 a4 3d 40 84 84 bd a0 98 82 bb d1 12 70 3d
       0.08051005 -0.06470537 -0.0039854795 0.058611695
000040 b9 6f 60 bd ca 2f 74 bd 35 46 83 bd 1a f9 54 bd
       -0.054794047 -0.059615888 -0.06409875 -0.051995374
000050 c4 78 9a bd 0d 74 37 3d 01 ec 2e 3d be 29 c2 bd
       -0.075425655 0.04478841 0.04270554 -0.09480618
000060 f3 8e 5d bd f3 bb 20 3d aa 9c d9 3c 86 bd 5f bd
       -0.054091405 0.039241742 0.026563961 -0.054624103
000070 d8 67 a2 3d bb 5d 27 bd e2 ca 44 3d 34 77 82 3d
       0.07929963 -0.040860873 0.048045047 0.063703924
000080 45 09 77 bd ca 2d 75 bd 78 cb a6 3c 0e f5 49 3d
       -0.060311574 -0.05985812 0.020360693 0.049305968
000090 54 1d 1e 3d fc d5 74 3d f3 36 bd 3d 35 d1 c9 bb
       0.03860219 0.059774384 0.09238996 -0.0061589726
0000a0 d9 f3 96 3d 8a 3b 5f bd 65 2b a9 3c 3c a5 43 bd
       0.07370729 -0.05450014 0.020650575 -0.047765
0000b0 48 87 3f bd 7a c3 cd 3b ba 70 ad 3d 39 42 a2 bd
       -0.046759874 0.006279406 0.084687665 -0.07922787
0000c0 1c a3 d5 3c e4 55 51 3d 0e 60 a4 bb 8f a2 c6 3d
       0.026078753 0.051107302 -0.0050163334 0.09698974
0000d0 b7 fc c8 3c d4 d2 31 3d ad dd 03 3c bf d3 13 bd
       0.024534566 0.043413952 0.008048457 -0.03609061
0000e0 80 22 2e 3d 22 9d 59 3d e6 cf d6 bc ec b1 b1 3d
       0.04251337 0.05312837 -0.02622218 0.08676514
0000f0 d7 bd 19 bd 4e 6c ba 3d b4 e9 7a bd ee 47 ae 3d
       -0.03753456 0.09102689 -0.061258033 0.08509813
000100 3f cb 81 bd 43 cc 9f bd 34 81 e3 3c d4 e2 70 3c
       -0.06337594 -0.07802632 0.02777157 0.014702518
000110 25 0e f0 3c be 4e 36 bd bf 35 da bc f7 01 0b bd
       0.02930362 -0.04450869 -0.026636956 -0.03393742
000120 31 63 f0 3c 60 02 80 bd 7f 7a 93 bd 24 42 1d bd
       0.029344173 -0.06250453 -0.07201099 -0.038393155
000130 dd a6 a9 bd 1e 76 9f bb 2c 91 04 bd f6 56 79 3d
       -0.0828378 -0.0048663756 -0.03236501 0.060873948
000140 88 3c ed 3c e3 fb 5a 3b 07 14 a7 3d d0 38 75 3d
       0.028959528 0.0033414296 0.08158117 0.059868634
000150 cd 95 ad 3d c0 70 90 bc b1 b4 a0 3c 4f 60 d2 3d
       0.08475838 -0.017631888 0.01961741 0.10272276
000160 80 01 08 bd 5c 13 33 bc d4 04 5b 3d e5 f1 6f 3d
       -0.033204556 -0.010929909 0.0534714 0.058580298
000170 61 ff 8d bc a9 c0 f2 3b 6c 6c bb 3d 57 af 95 3c
       -0.017333688 0.007408221 0.09151539 0.018272085
000180 2b 2c a1 bb 5c 30 37 bd 70 66 33 bd 1e d6 11 3d
       -0.0049185953 -0.044723853 -0.043798864 0.03560459
000190 d5 b7 5f 3d 72 c0 96 bd 2c a7 b7 bd 27 42 5d bd
       0.054618675 -0.07360925 -0.089674324 -0.054018166
0001a0 28 b2 9b 3d 23 8c a3 3d 21 f2 07 3c fa 64 93 bd
       0.0760234 0.07985713 0.008297474 -0.07196994
0001b0 ed ab 95 bd 0e df 5b 3c b6 2b 5a bd a6 92 b2 bd
       -0.07308183 0.01341988 -0.053264342 -0.08719377
0001c0 0f cf 43 3d 6f 17 cb 3b 1f 65 c7 bc b1 f1 27 bc
       0.04780489 0.006197862 -0.02434021 -0.010250495
0001d0 b2 5e b2 3d 63 31 17 3c 29 1c ae bd
       0.08709468 0.009228083 -0.08501465
