results/sceptr/eval/trained-sceptr-caneval-7/Epoch 41/classifier-41.pth (torch, 2307 bytes, 2 tensors)

scoring_linear1.weight f4 [1, 64]
000000 9e ca 21 3d 5e 3c 87 3d f9 9a 1e be d7 db 06 be
       0.03949987 0.06603311 -0.15488805 -0.131698
000010 91 42 63 3d 04 e0 0e 3e ef 1b 98 bd a3 f5 f1 bb
       0.055483405 0.13952643 -0.07427203 -0.0073840185
000020 b7 64 da bd e1 d3 d5 bd ca 8b 0c 3c ef 0b 9a 3c
       -0.10663741 -0.10440803 0.00857825 0.018804519
000030 61 8a 5f 3d 45 0a fc 3d f6 69 e4 3c 67 8e cd 3c
       0.054575328 0.12306646 0.027882557 0.025092317
000040 6e fc ac bc 9f 33 0f be e5 76 8b bd 57 a7 03 bd
       -0.021116462 -0.13984536 -0.06809787 -0.03214201
000050 c0 32 4c be 75 25 96 bd 4a 01 18 be 45 1d 08 3e
       -0.19941235 -0.07331363 -0.14844242 0.13292415
000060 e8 40 95 3c 8a f3 07 3e 1d f8 86 bd c3 8f 65 3d
       0.018219426 0.13276497 -0.065902926 0.056045305
000070 b9 2a 9a 3d 3f 20 f3 3d 79 e5 bc bd f8 58 e5 bd
       0.0752768 0.11871385 -0.09223456 -0.1119861
000080 5d aa ea bd 04 d1 82 3d 33 43 b4 bd 0d e5 84 3e
       -0.114582755 0.06387523 -0.0880188 0.25956002
000090 8d 1a f5 bb 4d a8 6a 3e 8a 3a 04 3e 6e 3d a5 bd
       -0.0074799717 0.22915764 0.12912956 -0.080683574
0000a0 41 9a d4 3d 3a f2 9e 3c 07 98 1b 3e 2b 19 a9 37
       0.10380984 0.019402612 0.15194713 2.015809e-05
0000b0 ec dd 0e be d9 ce b1 3d 46 9a ff bc d7 0a 90 3d
       -0.13951844 0.08682031 -0.031201493 0.070333175
0000c0 d8 2c 70 bd 33 68 37 be f8 6e d2 3a de e0 55 3e
       -0.058636516 -0.17910843 0.00160548 0.20886561
0000d0 f8 3b b0 bd dc a9 06 bd ac fd 5a be c9 25 bc 3d
       -0.08605188 -0.032876834 -0.2138583 0.091868944
0000e0 04 e1 7a 3e 60 6b 8d bd 05 04 a5 bd 55 22 b5 bd
       0.24499899 -0.06905246 -0.08057407 -0.08844439
0000f0 05 5e 38 3e 31 35 f4 3d 99 71 00 3e 4b 42 38 bd
       0.18004616 0.11924208 0.12543334 -0.044985097

classifying_linear1.weight f4 [1, 64]
000000 62 e1 49 bf cf 46 3a 3f 87 28 f8 3c 20 4e a2 bd
       -0.7885953 0.72764295 0.030292762 -0.079250574
000010 ef 07 5a 3f 69 39 58 bf d6 1b 6c bf 24 ab 3e 3f
       0.85168356 -0.844626 -0.92229974 0.7447989
000020 53 af 6e be 1d 6e e1 bc 01 ba 0e 3e 38 b7 67 3f
       -0.23309068 -0.027518326 0.13938142 0.90513945
000030 27 27 88 3e 20 b6 ad be 2b 29 f6 3e 0b fa 3d bf
       0.2659237 -0.33928013 0.48078284 -0.7420966
000040 07 ca 1e 3e 9d 05 08 bf 43 f7 8c bc c9 1d 7e 3f
       0.15506755 -0.53133565 -0.017207747 0.992642
000050 4a 8f ca be c9 1a c2 3d 1e 79 ad bc ae 19 87 be
       -0.39562446 0.09477765 -0.021175917 -0.2638678
000060 ce 14 d0 be 75 e3 89 bc c2 25 91 3f 2b 7e 82 3e
       -0.40640873 -0.016832093 1.1339648 0.25486884
000070 7b 98 1a bf 96 83 4f 3f e5 0d eb 3e 4e e4 1e 3e
       -0.60388917 0.8106016 0.45909038 0.15516779
000080 9c 56 59 bf e0 a0 05 3f 3e ad 8a 3f fb a5 6e 3d
       -0.8489778 0.521986 1.0834119 0.05826376
000090 11 db ae be 8e f1 b6 bd 1b 3b 35 be 23 59 6a be
       -0.3415151 -0.08932792 -0.17698328 -0.22885565
0000a0 6b cc 08 bf 51 c3 14 bf d6 26 e7 be b5 d4 31 bd
       -0.5343692 -0.5811053 -0.45146817 -0.043415744
0000b0 15 58 6a be bb c6 84 bf 73 22 eb bd 4b 99 20 bf
       -0.22885163 -1.0373148 -0.1148118 -0.62733907
0000c0 5d 48 45 bf 04 bc c1 3e 30 d9 63 3d 9a c8 94 3e
       -0.7706354 0.37838757 0.055627048 0.29059297
0000d0 bd 9a 70 3e de a7 a5 be 2c 16 e1 3d e6 c3 56 bd
       0.23496528 -0.32354635 0.10990557 -0.052432917
0000e0 78 88 92 be fe ff 90 3e 66 59 35 3d c7 0b 07 be
       -0.28619742 0.28320307 0.04427471 -0.13188086
0000f0 b5 5d d8 be 19 82 92 3e ff 8f 3e 3f 8d 07 49 bf
       -0.42258993 0.28614882 0.7443847 -0.78527147
