results/symbolic/random/trained-random-1538-3/Epoch 1/classifier-1.pth (torch, 8511 bytes, 4 tensors)

upscale.weight f4 [192, 5]
0	0xbe3cbe70	-0.18432021
1	0x3bb87700	0.0056294203
2	0xbe9cfacc	-0.30660093
3	0xbe71ae87	-0.23601733
4	0xbe666fdb	-0.22503607
5	0x3ec9a9b2	0.3938728
6	0x3e6cda60	0.23130178
7	0x3c7c7f98	0.01541128
8	0xbebee1fa	-0.3728178
9	0x3ec8c332	0.39211422
10	0xbee3cacb	-0.44490656
11	0xbde92c87	-0.11385446
12	0xbde06a8a	-0.10957821
13	0xbe9aa151	-0.302012
14	0xbcc512da	-0.02405684
15	0xbce58fc5	-0.028022656
16	0x3e0df751	0.13863875
17	0xbe2c02f6	-0.16798005
18	0xbee36b96	-0.4441802
19	0xbebff972	-0.37495
20	0xbdf2b8f3	-0.118516825
21	0xbee4f4be	-0.44717973
22	0x3dbe1dcb	0.09283026
23	0x3e120e95	0.14263375
24	0xbe63efe5	-0.22259481
25	0xbea5460c	-0.32280004
26	0xbeca5e3d	-0.39525023
27	0xbce16071	-0.027511807
28	0xbe885db9	-0.26634005
29	0x3d9f85bf	0.07789182
30	0xbe2befcc	-0.16790694
31	0xbeac7071	-0.33679536
32	0xbec5c992	-0.38630348
33	0x3e83ad2a	0.2571805
34	0xbed732eb	-0.42031035
35	0x3e3ca17d	0.18420978
36	0x3d73dcd5	0.059536774
37	0x3e1c2f55	0.1525243
38	0xbec3920b	-0.3819736
39	0x3ec69262	0.38783556
40	0xbde72086	-0.112855
41	0x3ea5b6b7	0.32365963
42	0xbe6d7743	-0.23190026
43	0xbea3ed3c	-0.32016933
44	0xbed19f2c	-0.4094175
45	0x3c6ec1c6	0.014572566
46	0xbed91e31	-0.42405847
47	0xbb5ea328	-0.003397176
48	0x3ed2daa2	0.4118243
49	0x3e734032	0.23754957
50	0xbe1b7c12	-0.15184048
51	0x3ec35d9a	0.3815735
52	0x3dfeca87	0.12440973
53	0xbe2f61ad	-0.17127104
54	0xbeb4b17c	-0.3529166
55	0xbe1ff317	-0.15620075
56	0x3e8ccf30	0.27501822
57	0xbecf1cf2	-0.4045177
58	0xbd43e390	-0.047824442
59	0x3e2c222b	0.16809909
60	0xbea51144	-0.32239735
61	0xbec66239	-0.38746813
62	0xbe712ce8	-0.23552287
63	0x3e14cb8c	0.14530772
64	0x3ebd02f9	0.3691633
65	0x3e7fc8f8	0.24979007
66	0x3ece6742	0.40313154
67	0x3de2c4ca	0.11072691
68	0xbe218c44	-0.15776163
69	0x3e31f8e3	0.17380099
70	0xbd7779f5	-0.06041904
71	0x3eb521cc	0.35377347
72	0x3ea82cf8	0.32846808
73	0xbe8515d0	-0.25993204
74	0xbd219bc9	-0.03945521
75	0x3ea3512b	0.31897864
76	0xbe98bc55	-0.29831186
77	0x3ecafdc8	0.39646745
78	0x3e1a232b	0.15052478
79	0x3e7bf782	0.24606135
80	0x3dcf644e	0.101265535
81	0x3e49b0d9	0.19696368
82	0x3d2de49d	0.04245435
83	0xbd8607e5	-0.065444745
84	0x3e9e6d5c	0.3094281
85	0xbc821fef	-0.015884368
86	0x3edb7ec1	0.42870143
87	0xbe6143cc	-0.21998519
88	0xbe893a94	-0.26802504
89	0x3d1a2924	0.03763689
90	0x3ece75ca	0.4032424
91	0xbdcca8cd	-0.09993134
92	0xbec9caa4	-0.39412415
93	0x3ed81df6	0.42210358
94	0xbe04e21c	-0.12976879
95	0x3e206d43	0.1566668
96	0xbc1d3fbf	-0.009597718
97	0xbec9b33c	-0.39394557
98	0x3e430b75	0.1904734
99	0x3e7aa53e	0.24477097
100	0x3d80b24c	0.062840074
101	0x3e915a0b	0.2838901
102	0x3e1f3dbb	0.15550892
103	0xbeda293c	-0.42609584
104	0x3d16d85b	0.036827426
105	0xbe4e1f1e	-0.20129058
106	0x3e667087	0.22503863
107	0xbedc90f5	-0.43079343
108	0x3ea02b55	0.3128306
109	0x3eae6eb0	0.34068823
110	0x3eb786d5	0.35845056
111	0x3e18e1c1	0.14929868
112	0xbea3635c	-0.31911743
113	0x3e8ecfd3	0.27892932
114	0xbec9cdc5	-0.39414802
115	0xbe65fc15	-0.22459443
116	0x3e2c9a7e	0.16855809
117	0x3de2ae35	0.110683836
118	0x3eb15155	0.34632364
119	0xbcb23aca	-0.021756548
120	0xbec084d2	-0.37601334
121	0x3dc4290e	0.09578143
122	0xbea46050	-0.3210473
123	0x3e707041	0.23480321
124	0x3ee1ce3f	0.44102666
125	0x3dbbd854	0.09172121
126	0x3c1e5dc2	0.009665908
127	0x3e93d089	0.28870037
128	0xbe5481f4	-0.20752698
129	0x3e591ed0	0.2120316
130	0xbce5cbff	-0.028051374
131	0xbecb5851	-0.39715818
132	0x3e112ab6	0.14176449
133	0x3dcbce4c	0.099514574
134	0xbebcf6c0	-0.36907005
135	0xbc9ed49c	-0.01938849
136	0xbeb6b650	-0.35685968
137	0xbe94da40	-0.29072762
138	0xbe15bce0	-0.14622831
139	0x3ec8c0e1	0.39209655
140	0x3e898df3	0.2686611
141	0xbdf48a34	-0.11940423
142	0x3e225db9	0.15856065
143	0x3dff0277	0.12451642
144	0x3eb78391	0.35842565
145	0x3e82f6c9	0.25578907
146	0x3e549482	0.20759776
147	0xbec7dee4	-0.3903724
148	0xbe24f0eb	-0.16107528
149	0x3e9b3292	0.3031202
150	0xbe1c2a03	-0.15250401
151	0x3eae29a8	0.34016156
152	0xbe54174c	-0.20712012
153	0xbec835db	-0.39103588
154	0x3cabab82	0.020955805
155	0xbee02cc3	-0.4378415
156	0x3dfc9a41	0.12334109
157	0xbc1124ba	-0.008858854
158	0xbea36a38	-0.31916976
159	0x3d3d6687	0.046240356
160	0x3edee42b	0.43533453
161	0x3ed0f5ea	0.40812618
162	0xbe3122dd	-0.17298456
163	0xbe63aef0	-0.22234702
164	0x3a84aff8	0.0010123244
165	0xbe19dd36	-0.15025792
166	0xbc2b5124	-0.010456357
167	0xbec94ddc	-0.39317214
168	0xbe97a410	-0.29617357
169	0xbe2380c3	-0.15967087
170	0xbeb744a9	-0.3579457
171	0xbd89e47a	-0.067330316
172	0xbe2d7395	-0.16938622
173	0xbe22167f	-0.15828894
174	0xbd1db15d	-0.038499225
175	0x3db3713a	0.08761831
176	0xbe92cac3	-0.2867032
177	0xbda62a48	-0.08113533
178	0x3da3db39	0.08000798
179	0x3ecd6514	0.4011618
180	0xbea5abcc	-0.32357633
181	0x3e936425	0.28787342
182	0x3e8e3bb2	0.2777992
183	0x3db674bf	0.08908986
184	0xbeaf0a30	-0.3418746
185	0xbe724dc8	-0.23662484
186	0x3e8c93b4	0.2745644
187	0x3ec55761	0.38543227
188	0x3ec71f8d	0.3889126
189	0xbe2a4a05	-0.16629799
190	0x3e50f8e5	0.20407446
191	0xbeaa505a	-0.33264428
192	0xbe802619	-0.25029066
193	0xbe7624d4	-0.24037486
194	0xbeb48fa3	-0.35265836
195	0xbe86d20a	-0.26332122
196	0x3e130fc5	0.14361484
197	0xbe838cf6	-0.25693482
198	0xbec9d5e9	-0.39421013
199	0x3e88265c	0.26591766
200	0xbecc6af4	-0.3992535
201	0x3eafdc8f	0.3434796
202	0xbec3e554	-0.382609
203	0x3ece0835	0.40240636
204	0x3db629d4	0.08894697
205	0x3e2818d4	0.16415721
206	0xbcdc6439	-0.026903259
207	0x3ec32345	0.38112846
208	0xbe6ebb87	-0.23313724
209	0x3dfed73c	0.124433964
210	0xbe47d7f3	-0.19515972
211	0x3ed65b39	0.41866472
212	0xbd16ffbd	-0.036864985
213	0xbe86aca6	-0.26303595
214	0xbd399ee7	-0.045317557
215	0x3d9d60b7	0.076844625
216	0x3eacbb96	0.33736867
217	0x3eb41aec	0.3517679
218	0x3e05958e	0.13045332
219	0x3e971465	0.29507747
220	0xbec274a3	-0.37979612
221	0xbe4cccc1	-0.19999982
222	0x3eb51300	0.35366058
223	0xbeca52e0	-0.39516354
224	0xbeb034fb	-0.3441542
225	0x3e918876	0.28424424
226	0xbe821c01	-0.2541199
227	0xbd5eaf2d	-0.05436628
228	0x3e46a760	0.19399786
229	0x3e3a139a	0.1817154
230	0xbe9fdc8c	-0.3122295
231	0xbd829cf0	-0.0637759
232	0x3ec8e104	0.39234173
233	0x3e719a30	0.23593974
234	0xbe3aa418	-0.1822666
235	0xbd9e17e8	-0.077194035
236	0x3ecb5218	0.3971107
237	0x3e89f64c	0.26945722
238	0x3e66d965	0.22543867
239	0x3e26ea67	0.16300355
240	0xbe2907f3	-0.16506939
241	0x3e4f4df0	0.20244575
242	0x3eb77327	0.35830042
243	0xbe3cafbc	-0.18426412
244	0xbd7aadfd	-0.061201084
245	0xbe7ddf80	-0.2479229
246	0xbec9401a	-0.39306718
247	0x3e03da50	0.12876248
248	0x3ed90ac3	0.42391023
249	0xbdb8d3fe	-0.09024809
250	0xbe645b8c	-0.22300547
251	0xbe23551f	-0.1595044
252	0x3d3d743a	0.04625342
253	0x3e1a850c	0.15089816
254	0x3d7cc0ee	0.06170743
255	0x3c1cf466	0.0095797535

upscale.bias f4 [192]
0	0x3bc434a3	0.00598772
1	0x3d2d40ba	0.042298056
2	0xbe64b618	-0.22335088
3	0x3e25e8d6	0.16202101
4	0xbebecad0	-0.3726411
5	0xbee237f6	-0.4418332
6	0xbe09b00b	-0.13446061
7	0xbeba4c70	-0.36386442
8	0xbe961056	-0.29309338
9	0x3dbbca9e	0.091695055
10	0xbc233522	-0.009961398
11	0x3d05f227	0.032701638
12	0x3eb3348d	0.3500103
13	0x3e90cc93	0.28281078
14	0x3d819422	0.06327082
15	0xbe236006	-0.15954599
16	0x3d567323	0.052355897
17	0xbe442da9	-0.19158043
18	0xbd837943	-0.06419613
19	0x3d856862	0.0651405
20	0xbde8c98d	-0.11366568
21	0xbdae8fca	-0.08523519
22	0x3c855819	0.01627736
23	0xbcc9a2fd	-0.024613852
24	0x3ec459ec	0.38349855
25	0x3eac0db6	0.3360421
26	0xbe704a89	-0.23465933
27	0x3e57ca80	0.21073341
28	0x3cf77b65	0.030210206
29	0x3ea13b97	0.31490776
30	0xbe927f11	-0.2861257
31	0xbdf106d2	-0.11768879
32	0xbe05e3ab	-0.1307513
33	0x3acd4992	0.0015662184
34	0x3e910913	0.28327236
35	0xbedab9e5	-0.4271995
36	0xbedc38d7	-0.43012115
37	0x3e757b2e	0.2397277
38	0xbed427f4	-0.41436732
39	0xbe806266	-0.25075072
40	0x3e95e937	0.2927949
41	0x3e7e9752	0.24862412
42	0xbec58ae8	-0.3858254
43	0x3e9f69d8	0.3113544
44	0xbdc9d47d	-0.09854982
45	0x3e9ecbf6	0.31014985
46	0x3e22335a	0.15839902
47	0xbcfa9e9c	-0.030593209
48	0xbe05e08c	-0.13073939
49	0x3e2fd5b0	0.17171359
50	0xbe06846a	-0.1313645
51	0x3b9d265c	0.0047958326
52	0x3d84c4a6	0.0648282
53	0x3dee8157	0.11645763
54	0x3eb5d83a	0.3551653
55	0x3eb7e13a	0.35914022
56	0x3e71b935	0.23605807
57	0x3e012146	0.12610349
58	0xbec452ce	-0.38344425
59	0xbe806ddc	-0.25083816
60	0x3cb09146	0.021553647
61	0xbeb89e6a	-0.3605836
62	0x3e8b8d5c	0.27256286
63	0x3eb1fac9	0.34761646
64	0x3e932722	0.28740793
65	0x3ed0075c	0.40630615
66	0x3d97031a	0.073736385
67	0xbe7687e0	-0.2407527
68	0xbde2363a	-0.11045499
69	0xbdc12839	-0.094315
70	0x3ee3bcee	0.4448008
71	0x3edd264b	0.43193278
72	0x3d9c54ca	0.0763336
73	0xbd242f3c	-0.04008411
74	0x3eb17480	0.34659195
75	0xbed9a716	-0.4251029
76	0xbe394b97	-0.18095241
77	0xbe4f4c55	-0.20243962
78	0x3e9c88db	0.30573162
79	0x3e50d96d	0.20395441
80	0x3da1b02a	0.07894929
81	0x3e0a2ef3	0.13494472
82	0xbee1a3b0	-0.44070196
83	0xbdbd084f	-0.092301
84	0x3e63c741	0.22243978
85	0x3e99ae6b	0.30015883
86	0xb9f85353	-0.00047364327
87	0xbd8347a7	-0.06410151
88	0xbed7068a	-0.41997176
89	0x3c611c6e	0.013739688
90	0x3ea392d7	0.31947967
91	0xbe773d64	-0.24144512
92	0xbeb19959	-0.34687307
93	0xbe75ecef	-0.24016164
94	0xbd38be43	-0.045103323
95	0xbe9c623d	-0.305437
96	0x3e98641c	0.29763877
97	0xbe804472	-0.2505222
98	0x3e3dc360	0.18531561
99	0x3ed6f112	0.41980797
100	0xbeae23f6	-0.3401181
101	0xbe37e39d	-0.17957921
102	0x3ecf811a	0.40528184
103	0xbd3915ab	-0.04518668
104	0xbed1bd63	-0.40964803
105	0xbee09302	-0.43862158
106	0xbdf1932b	-0.11795648
107	0x3e2e95fc	0.17049402
108	0xbdf85e42	-0.12127353
109	0xbdd63191	-0.10458673
110	0x3ee0a4a7	0.4387562
111	0xbe4c3500	-0.19942093
112	0x3ed810c5	0.42200294
113	0x3e086f5b	0.13323729
114	0x3ec3b34c	0.3822273
115	0xbe67a360	-0.22620916
116	0x3e5c82f5	0.21534331
117	0xbc5970b9	-0.013271504
118	0x3e42c314	0.19019729
119	0xbd0fd327	-0.03511348
120	0xbe2bf494	-0.16792518
121	0x3ce8bcf2	0.028410409
122	0x3d0cd8d7	0.034386482
123	0xb92ad9e5	-0.00016293635
124	0xbecf5c89	-0.40500286
125	0x3ecce247	0.40016386
126	0xbe658cfa	-0.2241706
127	0x3e216dfd	0.15764613
128	0xbbc09880	-0.0058775544
129	0x3e97a936	0.29621285
130	0xbe879ac7	-0.26485273
131	0xbe6d1595	-0.23152764
132	0x3ee41b2a	0.44551975
133	0x3ea951ce	0.33070225
134	0x3dc37405	0.09543613
135	0xbe35478d	-0.17703076
136	0xbdcac4ab	-0.09900793
137	0x3ea67f44	0.3251897
138	0xbea7ec2e	-0.32797378
139	0xbec976ee	-0.3934855
140	0xbedc8f86	-0.4307825
141	0x3e8b0b42	0.27157027
142	0x3eaef0a7	0.34167978
143	0x3ebf1a30	0.37324667
144	0x3ec629c0	0.38703728
145	0xbea66765	-0.3250076
146	0xbe02127c	-0.12702364
147	0xbea4c63e	-0.32182497
148	0xbea99eb3	-0.3312889
149	0x3ea6fc85	0.32614532
150	0x3db2454e	0.08704625
151	0x3ec1cb97	0.3785064
152	0xbe12555d	-0.14290376
153	0xbeb457bb	-0.35223183
154	0xbeb22fb5	-0.34802023
155	0xbe619473	-0.22029285
156	0x3ea4dff3	0.3220211
157	0x3dfb790d	0.12278948
158	0x3e6c73aa	0.23090997
159	0x3e553d78	0.2082423
160	0x3e7101a0	0.23535776
161	0x3e456a84	0.19278914
162	0x3ddc1d9f	0.10747837
163	0x3df83214	0.12118927
164	0xbd62e11e	-0.05539047
165	0xbe25a1ce	-0.16175005
166	0x3eb8512a	0.35999423
167	0x3ccf016a	0.025269229
168	0x3d6a0ee2	0.0571431
169	0x3e4b1bb9	0.19834794
170	0x3e0009dc	0.12503761
171	0x3ecbc1a3	0.3979617
172	0xbed36bcf	-0.4129319
173	0x3e8aad1a	0.2708519
174	0xbe3b95dc	-0.18318886
175	0x3e561f84	0.2091046
176	0xbe71a611	-0.23598506
177	0x3edd6630	0.43242025
178	0xbe885653	-0.2662836
179	0xbe3ddeea	-0.18542066
180	0xbee21390	-0.4415555
181	0xbece1d57	-0.4025676
182	0xbec1a0df	-0.37818047
183	0x3eb0b548	0.34513307
184	0xbec1df4e	-0.3786568
185	0xbea9ae63	-0.3314086
186	0x3acc1864	0.0015571234
187	0xbeb6f0bd	-0.35730544
188	0xbe9b2dec	-0.30308473
189	0x3cca9820	0.024730742
190	0xbe8cfe28	-0.27537656
191	0x3ee3d194	0.44495833

scoring_linear1.weight f4 [1, 192]
0	0x3d2cb4a1	0.04216445
1	0x3c5c8268	0.013458826
2	0xbcf23491	-0.029566081
3	0xbd1f3927	-0.038872864
4	0xbd9e2bdf	-0.077232115
5	0x3c9fad13	0.019491708
6	0xbd061537	-0.032735076
7	0xbd1021d1	-0.0351885
8	0xbca4b6f8	-0.020106778
9	0x3d677117	0.056504335
10	0xbc5945e5	-0.013261293
11	0x3c3c8716	0.011506816
12	0xbda146f6	-0.07874863
13	0x3d8beac9	0.06831891
14	0x3cdea3d2	0.027177725
15	0xbd83780c	-0.064193815
16	0xbcab464b	-0.020907542
17	0x3ca0aa60	0.019612491
18	0xbd364827	-0.044502404
19	0xbd7673d9	-0.060169075
20	0x3d1ece86	0.038771175
21	0xbbb4d557	-0.005518596
22	0x3cfc28c6	0.030781161
23	0xbdbba6c5	-0.09162668
24	0xbd8d6240	-0.06903505
25	0x3d7d4906	0.06183722
26	0xbd8357ce	-0.06413232
27	0xbd86540a	-0.06558998
28	0x3c60f71e	0.013730792
29	0x3d1cb0a1	0.038254384
30	0xbd298a27	-0.041391518
31	0x3c178a32	0.009249257
32	0xbc64e8fe	-0.013971565
33	0x3d37c33e	0.04486393
34	0xbd73c87f	-0.05951738
35	0xbd9234ec	-0.07139
36	0x3b7656d6	0.003758838
37	0x3c26e35a	0.010186041
38	0x382007d6	3.815427e-05
39	0x3cac1eb8	0.021010742
40	0xbccc06ef	-0.02490565
41	0xbc8b5d42	-0.017012242
42	0xba388973	-0.00070395245
43	0x3d2240fa	0.039612748
44	0x3d6cc268	0.057802588
45	0x3c7a60c0	0.015281856
46	0xbd6f5c50	-0.058437645
47	0x3ca99e4b	0.020705363
48	0x3d330c3a	0.043712832
49	0x3cf69f58	0.030105278
50	0xbc338fd0	-0.010959581
51	0x3d8d533c	0.06900641
52	0x3d22b82c	0.03972642
53	0xbc5f5577	-0.013631216
54	0xbd3174ce	-0.043324284
55	0x3d62ab7c	0.05533932
56	0xbd23232f	-0.039828476
57	0x3bcc4819	0.0062341806
58	0xbd3c88b7	-0.04602882
59	0x3d162c3f	0.03666329
60	0xbc23dbaf	-0.010001107
61	0x3d03fbd6	0.03222259
62	0x3bf28d85	0.0074021243
63	0x3caf517f	0.021401165
64	0xbd8ca2db	-0.06867
65	0xbd86df28	-0.065855324
66	0xbafaae82	-0.0019125494
67	0x3c0ae278	0.008476846
68	0xbcba5520	-0.022745669
69	0x3d79bc76	0.060970746
70	0x3c6a9602	0.014317991
71	0xbcecf39a	-0.028924752
72	0x3d3065ed	0.043065954
73	0x3d635fdd	0.055511344
74	0xbd063a6d	-0.032770563
75	0xbcb94eff	-0.022620676
76	0xbc13aeac	-0.009013813
77	0x3d8d09e5	0.06886653
78	0x3cdc177d	0.026866669
79	0xbd666ac6	-0.05625417
80	0x3c56cc8a	0.013110289
81	0xbd27b4b1	-0.040943805
82	0x3d680af8	0.056651086
83	0xbd96b915	-0.0735952
84	0xbd5c69c6	-0.05381181
85	0xbd23668a	-0.03989271
86	0x3d3caee1	0.046065215
87	0xbd696263	-0.056978595
88	0xbd4b1b25	-0.049586434
89	0x3d0d5b59	0.034510944
90	0xbcee451b	-0.029085686
91	0xbcfca156	-0.03083865
92	0x3c3cf302	0.011532547
93	0xbaf6b64e	-0.0018822642
94	0x3d72525f	0.059160586
95	0x3d3a3ed9	0.045470092
96	0xbc5a6f9e	-0.013332276
97	0x3c2d4cff	0.010577439
98	0xbce2889c	-0.027653031
99	0xbb9d936f	-0.004808835
100	0xbd444327	-0.047915604
101	0x3d454303	0.04815961
102	0xbb2026d1	-0.00244372
103	0x3d68a571	0.056798402
104	0xbbf31f5f	-0.007419511
105	0xbd3f789f	-0.046745893
106	0xbd5dea6e	-0.054178648
107	0xbd82f2da	-0.063939765
108	0x3d82104b	0.06350764
109	0x3d8a99e3	0.06767633
110	0x3d1f9752	0.03896267
111	0x3db2593c	0.08708426
112	0x3c54418a	0.012955079
113	0xbd34ba29	-0.04412285
114	0x3d7a19c0	0.061059713
115	0xbb8ebfab	-0.0043563447
116	0xbd9d82cd	-0.07690964
117	0x3cda528c	0.02665069
118	0x3d771c8c	0.06032996
119	0x3d8f1c40	0.0698781
120	0x3d391c11	0.04519278
121	0x3da3e431	0.080025084
122	0xbd4e17e1	-0.05031574
123	0xbc3dc7d6	-0.011583289
124	0x3cba0672	0.022708151
125	0x3d34da6a	0.04415361
126	0x3d51177f	0.0510478
127	0xbd85e0a6	-0.06536989
128	0x3d35dd1f	0.04440033
129	0xbccf174f	-0.02527967
130	0xbd5e4821	-0.054268006
131	0xbcb0ee70	-0.02159807
132	0x3d2e7d91	0.04260022
133	0xbcdcca7e	-0.026952025
134	0x3d3b84b7	0.045780864
135	0xbc0089cd	-0.007845354
136	0x3c65ab16	0.014017841
137	0xbc850932	-0.016239736
138	0x3d15abc3	0.036540758
139	0xbd89fed4	-0.06738058
140	0xbd3e56b3	-0.0464694
141	0xbdaf25ca	-0.085521296
142	0xbc4134b9	-0.011792355
143	0x3d644299	0.055727575
144	0xbd63ab08	-0.05558303
145	0x3beb43fa	0.0071797343
146	0x3bdeb505	0.0067964816
147	0xbd58bae4	-0.052912608
148	0xbd98a57b	-0.07453438
149	0x3b9a8d04	0.0047165174
150	0x3d2cc90a	0.042183913
151	0x3cf10570	0.029421538
152	0x3cfd4188	0.030915037
153	0xbcc82723	-0.024432724
154	0x3c5ceb57	0.013483844
155	0xbc5c2776	-0.013437143
156	0xbd8b696f	-0.06807219
157	0xbd4c67d2	-0.0499037
158	0xbd5b918f	-0.053605612
159	0xbb802ca3	-0.003911571
160	0x3d9b4d9f	0.075831644
161	0xbc063294	-0.00819077
162	0xbd863ed9	-0.06554956
163	0x3d2a5761	0.041587237
164	0xbb7644b0	-0.0037577562
165	0x3d2c4f15	0.042067606
166	0x3c4d27ff	0.012521743
167	0x3a5c796f	0.0008410429
168	0xbd0733d4	-0.03300841
169	0x3bb625cc	0.005558705
170	0xbc56482e	-0.013078732
171	0xbb944822	-0.0045252005
172	0xbcfbe22c	-0.030747496
173	0xbd3b996b	-0.045800608
174	0x3d54417e	0.05182027
175	0x3cef6776	0.029224139
176	0xbc96615b	-0.01835697
177	0xbcf08b2c	-0.029363237
178	0x3da386b1	0.07984675
179	0x3d99a4ed	0.0750216
180	0x3da65751	0.08122123
181	0xbc2ea344	-0.010659043
182	0x3ca9ed2e	0.020742979
183	0x3d957016	0.07296769
184	0x3d19fb7a	0.037593342
185	0x3c902340	0.017594934
186	0xbd6ab4e0	-0.057301402
187	0xbbab646b	-0.0052304766
188	0xbcccd694	-0.025004663
189	0xbd3def37	-0.04637071
190	0xbd99d8b9	-0.0751204
191	0x3d1b3262	0.037889846

classifying_linear1.weight f4 [1, 192]
0	0xbbe93348	-0.007116709
1	0x3c447e6a	0.01199303
2	0x3d467276	0.048449002
3	0xbce47320	-0.027886927
4	0x3d143681	0.03618479
5	0xbd8ad475	-0.06778804
6	0x3d030b9e	0.0319935
7	0xbcfafa89	-0.030637043
8	0xbc0ca05a	-0.008583153
9	0xbd20315b	-0.03910957
10	0x3d5a98ed	0.053368498
11	0x3cda4c86	0.026647817
12	0x3d1330bd	0.035935152
13	0x3d5384e9	0.051640425
14	0xbd79894b	-0.06092195
15	0x3bd6da19	0.006556761
16	0xbd7a1a12	-0.06106002
17	0xbb77114a	-0.0037699514
18	0xbc0959a0	-0.008383185
19	0xbb497de0	-0.0030745193
20	0xbdaa4792	-0.08314432
21	0x3d9ab839	0.07554669
22	0x3d571fe3	0.052520644
23	0x3d31edb6	0.04343959
24	0x3c129920	0.008947641
25	0x3d5e670f	0.054297503
26	0x3d18fda2	0.037351258
27	0x3c085256	0.008320412
28	0xbcee9b5d	-0.029126817
29	0xbd849ebb	-0.06475588
30	0xbd645dbf	-0.055753466
31	0x3c80ad1d	0.015707547
32	0xbd7cc83d	-0.0617144
33	0xbc37b9c1	-0.011213721
34	0xbd6e56a4	-0.058188096
35	0xbd241d14	-0.040066794
36	0xbd6181c6	-0.055055402
37	0x3d59272a	0.053015865
38	0xbd769372	-0.06019921
39	0xbcf05c24	-0.029340811
40	0x3cbb37b7	0.022853715
41	0xbd5df16e	-0.054185323
42	0xbd948be3	-0.07253244
43	0xbcc4d2f0	-0.024026364
44	0xbcb76087	-0.022384895
45	0x3caf4a74	0.021397807
46	0x3ce31466	0.027719688
47	0x3d6c12af	0.057635006
48	0x3d208a50	0.039194405
49	0x3d9f276c	0.07771191
50	0x3d87088e	0.065934286
51	0xbdbcd729	-0.09220726
52	0x3d5557a4	0.052085534
53	0xbd1b0ca2	-0.037853844
54	0xbb8a5320	-0.004221335
55	0x3d20b703	0.039237034
56	0xbd4e6b7c	-0.050395474
57	0x3caf241c	0.021379523
58	0xbd675d07	-0.056485202
59	0xbd053f36	-0.032530986
60	0xba8a1ac7	-0.0010536545
61	0xbd855987	-0.065112166
62	0x3d8ceac4	0.068807155
63	0x3c460312	0.012085693
64	0x3d6f73fa	0.058460213
65	0x3cebee78	0.028800234
66	0xbbfcd158	-0.0077153854
67	0x3d4e7214	0.050401762
68	0x3d0a0d2c	0.033703968
69	0xbca1587e	-0.019695517
70	0x3d90ec81	0.070763595
71	0xbd2866ba	-0.041113593
72	0xbd8ad30a	-0.06778534
73	0x3d4ffca7	0.050778057
74	0xbc6e5f3a	-0.014549071
75	0x3cd2b1cb	0.025719544
76	0x3c378e80	0.011203408
77	0xbd38b6a2	-0.045096047
78	0x3da45283	0.0802355
79	0x3c77ec38	0.0151320025
80	0x3db42363	0.08795812
81	0x3d02a66b	0.03189699
82	0xbd93e45e	-0.07221292
83	0x3d88026c	0.06641087
84	0xbce3cf63	-0.02780885
85	0x3d62956f	0.055318292
86	0x3d88bb2c	0.06676325
87	0x3d2ff34b	0.04295663
88	0x3ce9b8d3	0.028530514
89	0x3c2399cf	0.009985401
90	0xbd58b048	-0.05290249
91	0xbc1a6e26	-0.0094256755
92	0x3d779bd6	0.06045135
93	0xbd5b4569	-0.05353299
94	0x3b7e2824	0.003878125
95	0x3b25df89	0.002531024
96	0xbd5471a8	-0.051866204
97	0xbd2e5142	-0.042557962
98	0xbd08b0ee	-0.03337186
99	0xbd849464	-0.06473616
100	0xbd10799a	-0.03527222
101	0xbd6d9e6f	-0.058012422
102	0xbd3341c6	-0.0437639
103	0xbd4ed9d8	-0.05050072
104	0x3c52055b	0.01281866
105	0xbd6450a7	-0.05574098
106	0xbc4439a1	-0.01197663
107	0xbb45df49	-0.0030192903
108	0xbd98e3e3	-0.07465341
109	0xbcc2f28a	-0.023797292
110	0xbd658e5f	-0.05604398
111	0xbcf45e11	-0.02983001
112	0xbcfad6b9	-0.030619966
113	0xbd166e3b	-0.036726218
114	0xbcef8682	-0.029238943
115	0x3d2beef5	0.041975934
116	0x3c8b38f1	0.016994925
117	0x3d1da124	0.038483754
118	0xbd8d6e47	-0.06905799
119	0xbd3d1520	-0.046162724
120	0xbca1bca9	-0.01974328
121	0x3d00d41e	0.03145229
122	0xbd8b0936	-0.06788866
123	0xbd4fcac7	-0.050730493
124	0x3caa83d3	0.020814812
125	0x3d3ec912	0.046578474
126	0x3d8a3a5b	0.06749412
127	0xbd437ea3	-0.047728192
128	0x3d831d81	0.06402112
129	0x3d228df2	0.03968615
130	0xbd1ff5b1	-0.03905267
131	0xbd10e0ef	-0.035370763
132	0xbd110c56	-0.035412155
133	0x3d07824a	0.033083238
134	0xbd574725	-0.052558083
135	0xbc9c5145	-0.019081721
136	0x3bc9c644	0.0061576683
137	0xbc85638c	-0.01628282
138	0xbd15f624	-0.03661169
139	0xbcba36cf	-0.022731213
140	0xbd52326d	-0.05131762
141	0x3cb42120	0.021988451
142	0xbd0391e5	-0.032121558
143	0x3d7b68fe	0.061379425
144	0x3d87d911	0.06633199
145	0xbb68d9da	-0.003553024
146	0xbaf0ff84	-0.0018386696
147	0xbc226ecd	-0.009914112
148	0xbd833231	-0.064060576
149	0x3d67fad9	0.05663571
150	0xbd3e342d	-0.046436477
151	0xbd652a4b	-0.055948537
152	0xbd826944	-0.06367734
153	0xbca542b0	-0.0201734
154	0xbd542626	-0.051794194
155	0xbcc2526e	-0.023720946
156	0x3b971e34	0.004611755
157	0x3d637ff2	0.05554194
158	0xbbdccda5	-0.006738382
159	0xbc7ef121	-0.015560419
160	0x3cef0094	0.02917508
161	0xbd1c36d7	-0.038138237
162	0x3cb46c21	0.022024216
163	0xbc8d3be5	-0.017240474
164	0x3d46f89a	0.04857693
165	0xbd8e83f2	-0.0695876
166	0xbaf81480	-0.0018927008
167	0x3cc5dcb7	0.024153097
168	0xbd87cf30	-0.06631315
169	0x3c8f5a40	0.01749909
170	0xbd7237a5	-0.059135098
171	0x3cd1345d	0.025537664
172	0x3c3b918f	0.011448278
173	0x3c0ef816	0.0087261405
174	0x3d98197d	0.074267365
175	0xbd522f27	-0.0513145
176	0x3d8bb2a2	0.06821181
177	0x3dae2efe	0.08505057
178	0xbc81fd8b	-0.015867969
179	0xbe01bd52	-0.12669876
180	0xbd3f00c6	-0.046631597
181	0x3c74b2b9	0.014935189
182	0xbd49e599	-0.049291227
183	0xbd04adf4	-0.032392457
184	0xbd81b3b6	-0.06333105
185	0x3d3e5f9e	0.046477906
186	0xbd4ee258	-0.050508827
187	0x3c9cc117	0.019135041
188	0xbc7e81a0	-0.015533835
189	0x3cc54350	0.024079949
190	0xbd57adb7	-0.0526559
191	0x3d0961bb	0.03354047
