results/symbolic/kidera/trained-kidera-2/Epoch 13/classifier-13.pth (torch, 1795 bytes, 2 tensors)

scoring_linear1.weight f4 [1, 10]
0.06853981 0.2177114 0.0050401385 0.24057935 -0.02378665 -0.11865798 -0.25653812 0.1692204
-0.07286402 -0.34346676
00000000: 9a5e 8c3d bdef 5e3e bf27 a53b 6f5a 763e
00000010: 38dc c2bc f402 f3bd f758 83be 1d48 2d3e
00000020: bb39 95bd e0da afbe

classifying_linear1.weight f4 [1, 10]
-0.3049942 0.22388667 0.10589445 -0.34249797 0.2067782 -0.04090932 -0.179352 -0.11803085
0.29369444 0.16678193
00000000: 3328 9cbe 8c42 653e 30df d83d e55b afbe
00000010: aabd 533e 8890 27bd 0da8 37be 29ba f1bd
00000020: 1e5f 963e e2c8 2a3e
