results/symbolic/aaprop/trained-aaprop-0/Epoch 0/classifier-0.pth (torch, 1789 bytes, 2 tensors)

scoring_linear1.weight f4 [1, 14]
0	0xbe1f8d02	-0.15581134
1	0x3e723ee4	0.23656803
2	0x3dd52fdf	0.10409521
3	0x3e1bc183	0.15210538
4	0x3c9b2226	0.018937182
5	0x3e0bea6e	0.13663647
6	0xbdbb5079	-0.09146208
7	0x3e7f757e	0.24947163
8	0x3e62e800	0.22158813
9	0xbd319a55	-0.043360073
10	0x3d3ccb55	0.04609235
11	0xbe208003	-0.15673833
12	0xbe8891b7	-0.26673672
13	0xbe867ae8	-0.26265645

classifying_linear1.weight f4 [1, 14]
0	0x3e4baf94	0.19891196
1	0x3e71c573	0.23610477
2	0x3e2b97d2	0.16757134
3	0xbe3443a2	-0.17603925
4	0xbe7b2605	-0.24526222
5	0xbe579bad	-0.2105548
6	0x3e57df7c	0.21081346
7	0xbdb5a44d	-0.088692285
8	0x3dfa9672	0.122357264
9	0x3da58004	0.08081058
10	0xbe229405	-0.15876777
11	0x3c0e920d	0.008701813
12	0x3c942da8	0.018088177
13	0xbe2d47d6	-0.16921934
