results/symbolic/kidera/trained-kidera-0/Epoch 2/classifier-2.pth (torch, 1789 bytes, 2 tensors)

scoring_linear1.weight f4 [1, 10]
000000 58 f8 d2 bd 1d 25 b5 3e 9a d2 4f 3e 59 15 a0 3e
       -0.10301274 0.35379878 0.20295182 0.31266287
000010 16 52 37 be ba 4e 92 be 8e 84 31 bd 60 e4 8c 3c
       -0.17902407 -0.2857569 -0.043339305 0.017198741
000020 f6 d6 9b be 52 81 6e bd
       -0.3043744 -0.0582288

classifying_linear1.weight f4 [1, 10]
000000 2e 96 ab 3d 9d 50 2f 3c b5 43 62 3e 87 14 27 be
       0.08378254 0.010700372 0.2209614 -0.16316424
000010 1b 7d 03 3e 3e 13 c1 be f5 a2 6b 3e 22 a6 40 3e
       0.12840693 -0.37709993 0.23011382 0.18813375
000020 87 44 fc bd 95 b3 4b 3e
       -0.12317758 0.19892724
