results/symbolic/random/trained-random-130-3/Epoch 30/classifier-30.pth (torch, 2887 bytes, 4 tensors)

upscale.weight f4 [16, 5]
00000000: a1bb d6bd 5d80 3d3e 7973 8d3e de5c 413e
00000010: 0640 2e3e 4739 a3bd 3bd4 08bf 906b 05bf
00000020: 388f 253e 0706 dfbd 6aed 2c3e 4f06 d43d
00000030: 52db 4bbe 9282 84be 686a 8ebe b310 9e3e
00000040: d141 083d 05e5 dabe 5b77 ea3d 0a76 02bf
00000050: 02ef b73d 0229 843a 1c74 1fbf 1c81 003e
00000060: 67cf 893d ffb7 b33e 45c4 bebe cbce 2e3d
00000070: 469a 29be ea91 a9be 4c33 2e3d 5dd0 6dbe
00000080: 7635 a03d fe7b 25be 4d6e 073f e6fd c4be
00000090: a769 63be fe57 d53e d8f1 3bbe 4d28 ed3e
000000a0: 37b8 0d3e 04f0 18bd 8ced 0cbe 03d5 9fbe
000000b0: a2dd 0dbf e4a9 d93b f56e ad3d 223f 21bf
000000c0: 1735 6f3e 3a64 bcbd 33aa 773e f66f f43e
000000d0: 2b83 7bbe a9d7 ebbb ec97 fc3e 5e37 c63d
000000e0: cf2f 763e 2123 3dbe 9dab df3e 4ca8 a5bd
000000f0: 4da6 223e 0a91 f9be 6269 81be 96cc a23e
00000100: 9a70 1bbf b126 47be ab27 0fbe acdb 663e
00000110: b42a 033e f46a e13e 0897 bb3e e386 903d
00000120: 3621 573e e1e7 5abd 845b f935 54f9 debe
00000130: c6b1 e43e fef0 a03e ea3b debe 4baa 0e3f
-0.10485006 0.18505998 0.2762716 0.18883082 0.1701661 -0.07969909 -0.5344884 -0.5211725
0.16167915 -0.108898215 0.16887441 0.10352766 -0.19907883 -0.25880867 -0.27815557 0.30872115
0.033265892 -0.42752853 0.114485465 -0.50961363 0.08981134 0.0010083022 -0.62286544 0.12549251
0.06729012 0.35101315 -0.37259117 0.042677682 -0.16562757 -0.33119136 0.04252939 -0.23224016
0.07822697 -0.1616058 0.5290268 -0.3847496 -0.22208272 0.41668695 -0.18353975 0.4631981
0.13839804 -0.03733827 -0.13762492 -0.31217203 -0.5541631 0.006642567 0.08468429 -0.6298696
0.23360096 -0.09198804 0.2418602 0.4774167 -0.24561755 -0.0071973396 0.49334657 0.09678529
0.24041675 -0.18470432 0.43685618 -0.08088741 0.15883751 -0.4874347 -0.25275713 0.31796712
-0.6071869 -0.19448353 -0.13979976 0.22544736 0.12809259 0.4402691 0.36638665 0.070569776
0.21008763 -0.053443793 1.857858e-06 -0.43549597 0.4466688 0.31433862 -0.43405086 0.55728596

upscale.bias f4 [16]
00000000: 3360 4fbd c001 8d3e c79a cbbe 8c4f c13e
00000010: 9f09 12be 77fa 6bbc 43b9 dbbd 809e 153e
00000020: 4a88 adbe 479f ae3d 56c7 9bbe 56c7 fe3d
00000030: de00 d0bc 1e5d 0bbe 2514 cbbe 4735 0fbd
-0.050628852 0.27540398 -0.39766523 0.37756002 -0.14261483 -0.014402977 -0.10728695 0.14611244
-0.33893043 0.085264735 -0.3042552 0.12440364 -0.025391039 -0.1360974 -0.39663807 -0.03496292

scoring_linear1.weight f4 [1, 16]
00000000: d144 0f3e 877a e93c ecf1 333d 42ae 18be
00000010: 3e7c 313e ae94 25be c9c6 6fbd 844f a53d
00000020: e881 253e 6aa2 94bd 542e b43d b3ab 1bbd
00000030: a959 613e 0368 83bd 155f 083e 03a5 98bc
0.13991095 0.028500808 0.043931887 -0.14910224 0.17332551 -0.16169998 -0.058539186 0.08071807
0.16162837 -0.072575405 0.08797899 -0.038005542 0.22006859 -0.06416323 0.13317521 -0.018633371

classifying_linear1.weight f4 [1, 16]
00000000: 0803 573e f4a6 15bf 717a 0e3d bec0 92be
00000010: 1b94 c0be afe5 e4bd ffe4 883e 49b2 533f
00000020: a6ab 49be c547 3ebf 4970 143e 222f b5bd
00000030: dedf f1be 97d5 5e3e 5017 793e c422 943f
0.2099725 -0.58457875 0.034784738 -0.28662676 -0.37612996 -0.11176621 0.2673721 0.82693917
-0.19694385 -0.7432826 0.14495958 -0.088468805 -0.4724111 0.21761166 0.243253 1.157311
