results/symbolic/aaprop/trained-aaprop-130-3/Epoch 34/classifier-34.pth (torch, 2823 bytes, 4 tensors)

upscale.weight f4 [8, 14]
00000000: 7737 1f3e 68d1 fabd 00cd 34bd c368 9c3e
00000010: ffab 943e 9cf9 77be 9da8 c0be 0d9f db3d
00000020: 93bd 893d c2e4 33be 7de0 bfbc b28b cb3d
00000030: 1d43 263d efc8 303e ef55 e9bd 6116 87be
00000040: aef7 223e 7f8e 99bd d011 43bd a6c3 4a3e
00000050: fe61 d33e f4a4 98be b2d6 abbe 73e2 6e3d
00000060: f4d7 403e 8c31 c939 a83b 1a3e d982 723e
00000070: 7727 0dbe 50fd 21be 6a8b 54be da3c 1bbe
00000080: efb9 a3be 47a1 033e 2efc b23e cba4 dbbd
00000090: 8e42 fdbb e9cb 4b3e b850 1a3e 5df5 37bd
000000a0: 9f32 763e 7aec 26be 5cbf 92b9 2b85 7e3c
000000b0: 8d8c eebb e045 68be 479a 96bd 0888 9b3d
000000c0: e3be f43e c60e a9bd 60c4 a3be 9f9f 9cbc
000000d0: fb4f 52bd ec11 b63c b517 f43e 3a15 eabd
000000e0: 3d1f 273c afb1 3c3c 78bf f13c 390d bf3e
000000f0: c528 433d f8c3 943e fafb 823d ed91 0c3d
00000100: c7ea a93c f6ed 293d 9a53 30be 9aab 98bd
00000110: fed8 d23d 3f3e 67bc 2ba1 30be c37f f53d
00000120: 6fc9 a63c d57e 39be fd3a 863e f153 5f3d
00000130: 4fe8 173e 0d43 943e 530a bf3d 9cd5 d0bd
00000140: 41a5 35be c142 b13e 4ae4 ecbd bc94 18be
00000150: 62b0 953d e32c b93d f533 f03d b9d5 463e
00000160: 52f2 913e 4f8d 693e e916 22be b057 66bd
00000170: 1e9c 3e3e 41cf cabd 2952 67be 2e90 323e
00000180: ee6f 5bbe fcf2 18bd 033a 353d 23d8 b6bd
00000190: 3286 33bd e6cc f63d ac36 74be 9c80 5e3e
000001a0: 245f 023f 3350 84bc 0974 45be 93f8 02bd
000001b0: 2fcf 33be 78b1 4abe 5296 863e 65d6 36bd
0.15548502 -0.12246972 -0.044140816 0.30548677 0.29037473 -0.24216312 -0.37628642 0.10723696
0.067256115 -0.17567733 -0.023422474 0.09938754 0.040591348 0.1726415 -0.11393344 -0.2638426
0.15914795 -0.07497882 -0.04762441 0.19801196 0.412857 -0.2981335 -0.33562237 0.058321428
0.1883238 0.00038374623 0.1506182 0.23682727 -0.13784586 -0.15819287 -0.20756307 -0.15159932
-0.31977794 0.12854491 0.34958023 -0.10724791 -0.007728881 0.19902004 0.15069854 -0.04491173
0.24042748 -0.16301146 -0.00027989864 0.015534679 -0.0072799386 -0.22682905 -0.07353645 0.07594305
0.47801885 -0.08254771 -0.3198576 -0.019119082 -0.051345807 0.022225343 0.47674337 -0.1142983
0.010200319 0.011516972 0.029510245 0.37314776 0.047646303 0.29055762 0.06395717 0.034318853
0.020741833 0.041486703 -0.17219391 -0.074546054 0.10295294 -0.014113962 -0.1724898 0.11987259
0.020359723 -0.18114789 0.2621688 0.054523412 0.14834712 0.28957406 0.09328141 -0.10196993
-0.1773882 0.34621242 -0.1156698 -0.14900488 0.07309033 0.090417646 0.1172866 0.19417466
0.28505188 0.22807811 -0.15829052 -0.05623597 0.18614241 -0.09902812 -0.22589935 0.17437813
-0.21429417 -0.037341103 0.044244777 -0.089279436 -0.04382915 0.120508 -0.2384898 0.21728748
0.50926423 -0.016151523 -0.19282545 -0.03197534 -0.17559503 -0.19794261 0.2628656 -0.044638056

upscale.bias f4 [8]
00000000: 7a95 36bd aba0 84be 5da8 b13d 0b24 4d3e
00000010: a17e 1cbe 5ab7 25be 8bc1 66be 953e 583e
-0.044576146 -0.2590383 0.08674691 0.2003328 -0.1528268 -0.16183224 -0.22534768 0.21117623

scoring_linear1.weight f4 [1, 8]
00000000: 398c 65be 8409 913d 123d bb3d f8b3 37be
00000010: cc59 17be 9390 cf3e 9a20 913d c202 38be
-0.22416772 0.07081893 0.091425076 -0.17939746 -0.14780349 0.4053999 0.070862964 -0.17969802

classifying_linear1.weight f4 [1, 8]
00000000: 6348 dcbe e89b e33e ab98 bc3e ed49 223f
00000010: 260d 8dbc 7512 11be 878e d8be c015 353f
-0.43023977 0.44454885 0.36835226 0.6339405 -0.017218184 -0.14167197 -0.4229624 0.7073631
