results/symbolic/aaprop/trained-aaprop-4/Epoch 2/classifier-2.pth (torch, 1789 bytes, 2 tensors)

scoring_linear1.weight f4 [1, 14]
00000000: b8f4 cb3d 2e43 85be b13d 843e 93a7 213e
00000010: e5c1 1ebd db6c 933e 02c0 283e b7fd 443e
00000020: 33a6 24be c51d d2bd d60e 3dbd 92a0 85bc
00000030: 489e c2bd 653b 3dbe
0.09958786 -0.26027817 0.25828317 0.1578658 -0.03875913 0.28793988 0.16479495 0.1923741
-0.16079025 -0.10259584 -0.046156727 -0.016311917 -0.09502846 -0.18479688

classifying_linear1.weight f4 [1, 14]
00000000: f167 373e 1bb5 eabd efcf 183e 8383 273e
00000010: 321e 7fbe ece3 63be 2070 33be d5cd 4c3e
00000020: a029 53be 325c 223d 29ff 183e f14a 243e
00000030: 4b0f f93d 587c 873e
0.17910744 -0.114603244 0.1492307 0.16358761 -0.24913862 -0.22254914 -0.17523241 0.20000394
-0.20621347 0.039638706 0.14941086 0.16044213 0.1216112 0.26462054
